{"format": "graph-model", "generatedBy": "2.18.0", "convertedBy": "TensorFlow.js Converter v4.22.0", "signature": {"inputs": {"keras_tensor_74": {"name": "keras_tensor_74:0", "dtype": "DT_FLOAT", "tensorShape": {"dim": [{"size": "-1"}, {"size": "100"}, {"size": "1"}]}}}, "outputs": {"output_0": {"name": "Identity:0", "dtype": "DT_FLOAT", "tensorShape": {"dim": [{"size": "-1"}, {"size": "1"}]}}}}, "modelTopology": {"node": [{"name": "StatefulPartitionedCall/sequential_2_1/lstm_11_1/TensorArrayV2Stack/TensorListStack/element_shape", "op": "Const", "attr": {"value": {"tensor": {"dtype": "DT_INT32", "tensorShape": {"dim": [{"size": "2"}]}}}, "dtype": {"type": "DT_INT32"}}}, {"name": "StatefulPartitionedCall/sequential_2_1/lstm_11_1/strided_slice_3/stack", "op": "Const", "attr": {"value": {"tensor": {"dtype": "DT_INT32", "tensorShape": {"dim": [{"size": "1"}]}}}, "dtype": {"type": "DT_INT32"}}}, {"name": "StatefulPartitionedCall/sequential_2_1/lstm_11_1/strided_slice_3/stack_1", "op": "Const", "attr": {"value": {"tensor": {"dtype": "DT_INT32", "tensorShape": {"dim": [{"size": "1"}]}}}, "dtype": {"type": "DT_INT32"}}}, {"name": "StatefulPartitionedCall/sequential_2_1/lstm_11_1/strided_slice_3/stack_2", "op": "Const", "attr": {"value": {"tensor": {"dtype": "DT_INT32", "tensorShape": {"dim": [{"size": "1"}]}}}, "dtype": {"type": "DT_INT32"}}}, {"name": "StatefulPartitionedCall/sequential_2_1/dense_2_1/Cast/ReadVariableOp", "op": "Const", "attr": {"value": {"tensor": {"dtype": "DT_FLOAT", "tensorShape": {"dim": [{"size": "150"}, {"size": "1"}]}}}, "dtype": {"type": "DT_FLOAT"}}}, {"name": "StatefulPartitionedCall/sequential_2_1/lstm_11_1/Max", "op": "Const", "attr": {"value": {"tensor": {"dtype": "DT_INT32", "tensorShape": {}}}, "dtype": {"type": "DT_INT32"}}}, {"name": "StatefulPartitionedCall/sequential_2_1/lstm_11_1/while/loop_counter", "op": "Const", "attr": {"value": {"tensor": {"dtype": "DT_INT32", "tensorShape": {}}}, "_has_manual_control_dependencies": {"b": true}, "dtype": {"type": "DT_INT32"}}}, {"name": "StatefulPartitionedCall/sequential_2_1/lstm_11_1/time", "op": "Const", "attr": {"value": {"tensor": {"dtype": "DT_INT32", "tensorShape": {}}}, "_has_manual_control_dependencies": {"b": true}, "dtype": {"type": "DT_INT32"}}}, {"name": "Func/StatefulPartitionedCall/input/_10", "op": "Const", "attr": {"value": {"tensor": {"dtype": "DT_FLOAT", "tensorShape": {"dim": [{"size": "150"}, {"size": "600"}]}}}, "dtype": {"type": "DT_FLOAT"}}}, {"name": "Func/StatefulPartitionedCall/input/_11", "op": "Const", "attr": {"value": {"tensor": {"dtype": "DT_FLOAT", "tensorShape": {"dim": [{"size": "150"}, {"size": "600"}]}}}, "dtype": {"type": "DT_FLOAT"}}}, {"name": "Func/StatefulPartitionedCall/input/_12", "op": "Const", "attr": {"value": {"tensor": {"dtype": "DT_FLOAT", "tensorShape": {"dim": [{"size": "600"}]}}}, "dtype": {"type": "DT_FLOAT"}}}, {"name": "StatefulPartitionedCall/sequential_2_1/lstm_11_1/TensorArrayUnstack/TensorListFromTensor/element_shape", "op": "Const", "attr": {"value": {"tensor": {"dtype": "DT_INT32", "tensorShape": {"dim": [{"size": "2"}]}}}, "dtype": {"type": "DT_INT32"}}}, {"name": "StatefulPartitionedCall/sequential_2_1/lstm_11_1/TensorArrayV2_1/element_shape", "op": "Const", "attr": {"value": {"tensor": {"dtype": "DT_INT32", "tensorShape": {"dim": [{"size": "2"}]}}}, "dtype": {"type": "DT_INT32"}}}, {"name": "StatefulPartitionedCall/sequential_2_1/lstm_11_1/TensorArrayV2_1/num_elements", "op": "Const", "attr": {"value": {"tensor": {"dtype": "DT_INT32", "tensorShape": {}}}, "dtype": {"type": "DT_INT32"}}}, {"name": "StatefulPartitionedCall/sequential_2_1/lstm_11_1/zeros/packed/1", "op": "Const", "attr": {"value": {"tensor": {"dtype": "DT_INT32", "tensorShape": {}}}, "dtype": {"type": "DT_INT32"}}}, {"name": "StatefulPartitionedCall/sequential_2_1/lstm_11_1/zeros/Const", "op": "Const", "attr": {"value": {"tensor": {"dtype": "DT_FLOAT", "tensorShape": {}}}, "dtype": {"type": "DT_FLOAT"}}}, {"name": "StatefulPartitionedCall/sequential_2_1/lstm_10_1/TensorArrayV2Stack/TensorListStack/element_shape", "op": "Const", "attr": {"value": {"tensor": {"dtype": "DT_INT32", "tensorShape": {"dim": [{"size": "2"}]}}}, "dtype": {"type": "DT_INT32"}}}, {"name": "StatefulPartitionedCall/sequential_2_1/lstm_10_1/transpose_1/perm", "op": "Const", "attr": {"value": {"tensor": {"dtype": "DT_INT32", "tensorShape": {"dim": [{"size": "3"}]}}}, "dtype": {"type": "DT_INT32"}}}, {"name": "StatefulPartitionedCall/sequential_2_1/lstm_11_1/strided_slice/stack", "op": "Const", "attr": {"value": {"tensor": {"dtype": "DT_INT32", "tensorShape": {"dim": [{"size": "1"}]}}}, "dtype": {"type": "DT_INT32"}}}, {"name": "StatefulPartitionedCall/sequential_2_1/lstm_11_1/strided_slice/stack_1", "op": "Const", "attr": {"value": {"tensor": {"dtype": "DT_INT32", "tensorShape": {"dim": [{"size": "1"}]}}}, "dtype": {"type": "DT_INT32"}}}, {"name": "StatefulPartitionedCall/sequential_2_1/lstm_11_1/strided_slice/stack_2", "op": "Const", "attr": {"value": {"tensor": {"dtype": "DT_INT32", "tensorShape": {"dim": [{"size": "1"}]}}}, "dtype": {"type": "DT_INT32"}}}, {"name": "StatefulPartitionedCall/sequential_2_1/lstm_11_1/zeros_1/packed/1", "op": "Const", "attr": {"value": {"tensor": {"dtype": "DT_INT32", "tensorShape": {}}}, "dtype": {"type": "DT_INT32"}}}, {"name": "StatefulPartitionedCall/sequential_2_1/lstm_11_1/zeros_1/Const", "op": "Const", "attr": {"value": {"tensor": {"dtype": "DT_FLOAT", "tensorShape": {}}}, "dtype": {"type": "DT_FLOAT"}}}, {"name": "StatefulPartitionedCall/sequential_2_1/lstm_10_1/Max", "op": "Const", "attr": {"value": {"tensor": {"dtype": "DT_INT32", "tensorShape": {}}}, "dtype": {"type": "DT_INT32"}}}, {"name": "StatefulPartitionedCall/sequential_2_1/lstm_10_1/while/loop_counter", "op": "Const", "attr": {"value": {"tensor": {"dtype": "DT_INT32", "tensorShape": {}}}, "_has_manual_control_dependencies": {"b": true}, "dtype": {"type": "DT_INT32"}}}, {"name": "StatefulPartitionedCall/sequential_2_1/lstm_10_1/time", "op": "Const", "attr": {"value": {"tensor": {"dtype": "DT_INT32", "tensorShape": {}}}, "_has_manual_control_dependencies": {"b": true}, "dtype": {"type": "DT_INT32"}}}, {"name": "Func/StatefulPartitionedCall/input/_7", "op": "Const", "attr": {"value": {"tensor": {"dtype": "DT_FLOAT", "tensorShape": {"dim": [{"size": "150"}, {"size": "600"}]}}}, "dtype": {"type": "DT_FLOAT"}}}, {"name": "Func/StatefulPartitionedCall/input/_8", "op": "Const", "attr": {"value": {"tensor": {"dtype": "DT_FLOAT", "tensorShape": {"dim": [{"size": "150"}, {"size": "600"}]}}}, "dtype": {"type": "DT_FLOAT"}}}, {"name": "Func/StatefulPartitionedCall/input/_9", "op": "Const", "attr": {"value": {"tensor": {"dtype": "DT_FLOAT", "tensorShape": {"dim": [{"size": "600"}]}}}, "dtype": {"type": "DT_FLOAT"}}}, {"name": "StatefulPartitionedCall/sequential_2_1/lstm_10_1/TensorArrayUnstack/TensorListFromTensor/element_shape", "op": "Const", "attr": {"value": {"tensor": {"dtype": "DT_INT32", "tensorShape": {"dim": [{"size": "2"}]}}}, "dtype": {"type": "DT_INT32"}}}, {"name": "StatefulPartitionedCall/sequential_2_1/lstm_10_1/TensorArrayV2_1/element_shape", "op": "Const", "attr": {"value": {"tensor": {"dtype": "DT_INT32", "tensorShape": {"dim": [{"size": "2"}]}}}, "dtype": {"type": "DT_INT32"}}}, {"name": "StatefulPartitionedCall/sequential_2_1/lstm_10_1/TensorArrayV2_1/num_elements", "op": "Const", "attr": {"value": {"tensor": {"dtype": "DT_INT32", "tensorShape": {}}}, "dtype": {"type": "DT_INT32"}}}, {"name": "StatefulPartitionedCall/sequential_2_1/lstm_10_1/zeros/packed/1", "op": "Const", "attr": {"value": {"tensor": {"dtype": "DT_INT32", "tensorShape": {}}}, "dtype": {"type": "DT_INT32"}}}, {"name": "StatefulPartitionedCall/sequential_2_1/lstm_10_1/zeros/Const", "op": "Const", "attr": {"value": {"tensor": {"dtype": "DT_FLOAT", "tensorShape": {}}}, "dtype": {"type": "DT_FLOAT"}}}, {"name": "StatefulPartitionedCall/sequential_2_1/lstm_9_1/Max", "op": "Const", "attr": {"value": {"tensor": {"dtype": "DT_INT32", "tensorShape": {}}}, "dtype": {"type": "DT_INT32"}}}, {"name": "StatefulPartitionedCall/sequential_2_1/lstm_9_1/while/loop_counter", "op": "Const", "attr": {"value": {"tensor": {"dtype": "DT_INT32", "tensorShape": {}}}, "_has_manual_control_dependencies": {"b": true}, "dtype": {"type": "DT_INT32"}}}, {"name": "StatefulPartitionedCall/sequential_2_1/lstm_9_1/time", "op": "Const", "attr": {"value": {"tensor": {"dtype": "DT_INT32", "tensorShape": {}}}, "_has_manual_control_dependencies": {"b": true}, "dtype": {"type": "DT_INT32"}}}, {"name": "Func/StatefulPartitionedCall/input/_4", "op": "Const", "attr": {"value": {"tensor": {"dtype": "DT_FLOAT", "tensorShape": {"dim": [{"size": "150"}, {"size": "600"}]}}}, "dtype": {"type": "DT_FLOAT"}}}, {"name": "Func/StatefulPartitionedCall/input/_5", "op": "Const", "attr": {"value": {"tensor": {"dtype": "DT_FLOAT", "tensorShape": {"dim": [{"size": "150"}, {"size": "600"}]}}}, "dtype": {"type": "DT_FLOAT"}}}, {"name": "Func/StatefulPartitionedCall/input/_6", "op": "Const", "attr": {"value": {"tensor": {"dtype": "DT_FLOAT", "tensorShape": {"dim": [{"size": "600"}]}}}, "dtype": {"type": "DT_FLOAT"}}}, {"name": "StatefulPartitionedCall/sequential_2_1/lstm_9_1/TensorArrayUnstack/TensorListFromTensor/element_shape", "op": "Const", "attr": {"value": {"tensor": {"dtype": "DT_INT32", "tensorShape": {"dim": [{"size": "2"}]}}}, "dtype": {"type": "DT_INT32"}}}, {"name": "StatefulPartitionedCall/sequential_2_1/lstm_9_1/TensorArrayV2_1/element_shape", "op": "Const", "attr": {"value": {"tensor": {"dtype": "DT_INT32", "tensorShape": {"dim": [{"size": "2"}]}}}, "dtype": {"type": "DT_INT32"}}}, {"name": "StatefulPartitionedCall/sequential_2_1/lstm_9_1/TensorArrayV2_1/num_elements", "op": "Const", "attr": {"value": {"tensor": {"dtype": "DT_INT32", "tensorShape": {}}}, "dtype": {"type": "DT_INT32"}}}, {"name": "StatefulPartitionedCall/sequential_2_1/lstm_9_1/zeros/packed/1", "op": "Const", "attr": {"value": {"tensor": {"dtype": "DT_INT32", "tensorShape": {}}}, "dtype": {"type": "DT_INT32"}}}, {"name": "StatefulPartitionedCall/sequential_2_1/lstm_9_1/zeros/Const", "op": "Const", "attr": {"value": {"tensor": {"dtype": "DT_FLOAT", "tensorShape": {}}}, "dtype": {"type": "DT_FLOAT"}}}, {"name": "StatefulPartitionedCall/sequential_2_1/lstm_8_1/Max", "op": "Const", "attr": {"value": {"tensor": {"dtype": "DT_INT32", "tensorShape": {}}}, "dtype": {"type": "DT_INT32"}}}, {"name": "StatefulPartitionedCall/sequential_2_1/lstm_8_1/while/loop_counter", "op": "Const", "attr": {"value": {"tensor": {"dtype": "DT_INT32", "tensorShape": {}}}, "_has_manual_control_dependencies": {"b": true}, "dtype": {"type": "DT_INT32"}}}, {"name": "StatefulPartitionedCall/sequential_2_1/lstm_8_1/time", "op": "Const", "attr": {"value": {"tensor": {"dtype": "DT_INT32", "tensorShape": {}}}, "_has_manual_control_dependencies": {"b": true}, "dtype": {"type": "DT_INT32"}}}, {"name": "Func/StatefulPartitionedCall/input/_1", "op": "Const", "attr": {"value": {"tensor": {"dtype": "DT_FLOAT", "tensorShape": {"dim": [{"size": "1"}, {"size": "600"}]}}}, "dtype": {"type": "DT_FLOAT"}}}, {"name": "Func/StatefulPartitionedCall/input/_2", "op": "Const", "attr": {"value": {"tensor": {"dtype": "DT_FLOAT", "tensorShape": {"dim": [{"size": "150"}, {"size": "600"}]}}}, "dtype": {"type": "DT_FLOAT"}}}, {"name": "Func/StatefulPartitionedCall/input/_3", "op": "Const", "attr": {"value": {"tensor": {"dtype": "DT_FLOAT", "tensorShape": {"dim": [{"size": "600"}]}}}, "dtype": {"type": "DT_FLOAT"}}}, {"name": "StatefulPartitionedCall/sequential_2_1/lstm_8_1/transpose/perm", "op": "Const", "attr": {"value": {"tensor": {"dtype": "DT_INT32", "tensorShape": {"dim": [{"size": "3"}]}}}, "dtype": {"type": "DT_INT32"}}}, {"name": "StatefulPartitionedCall/sequential_2_1/lstm_8_1/TensorArrayUnstack/TensorListFromTensor/element_shape", "op": "Const", "attr": {"value": {"tensor": {"dtype": "DT_INT32", "tensorShape": {"dim": [{"size": "2"}]}}}, "dtype": {"type": "DT_INT32"}}}, {"name": "StatefulPartitionedCall/sequential_2_1/lstm_8_1/TensorArrayV2_1/element_shape", "op": "Const", "attr": {"value": {"tensor": {"dtype": "DT_INT32", "tensorShape": {"dim": [{"size": "2"}]}}}, "dtype": {"type": "DT_INT32"}}}, {"name": "StatefulPartitionedCall/sequential_2_1/lstm_8_1/TensorArrayV2_1/num_elements", "op": "Const", "attr": {"value": {"tensor": {"dtype": "DT_INT32", "tensorShape": {}}}, "dtype": {"type": "DT_INT32"}}}, {"name": "StatefulPartitionedCall/sequential_2_1/lstm_8_1/zeros/packed/1", "op": "Const", "attr": {"value": {"tensor": {"dtype": "DT_INT32", "tensorShape": {}}}, "dtype": {"type": "DT_INT32"}}}, {"name": "StatefulPartitionedCall/sequential_2_1/lstm_8_1/zeros/Const", "op": "Const", "attr": {"value": {"tensor": {"dtype": "DT_FLOAT", "tensorShape": {}}}, "dtype": {"type": "DT_FLOAT"}}}, {"name": "StatefulPartitionedCall/sequential_2_1/lstm_8_1/strided_slice/stack", "op": "Const", "attr": {"value": {"tensor": {"dtype": "DT_INT32", "tensorShape": {"dim": [{"size": "1"}]}}}, "dtype": {"type": "DT_INT32"}}}, {"name": "StatefulPartitionedCall/sequential_2_1/lstm_8_1/strided_slice/stack_1", "op": "Const", "attr": {"value": {"tensor": {"dtype": "DT_INT32", "tensorShape": {"dim": [{"size": "1"}]}}}, "dtype": {"type": "DT_INT32"}}}, {"name": "StatefulPartitionedCall/sequential_2_1/lstm_8_1/strided_slice/stack_2", "op": "Const", "attr": {"value": {"tensor": {"dtype": "DT_INT32", "tensorShape": {"dim": [{"size": "1"}]}}}, "dtype": {"type": "DT_INT32"}}}, {"name": "StatefulPartitionedCall/sequential_2_1/lstm_8_1/zeros_1/packed/1", "op": "Const", "attr": {"value": {"tensor": {"dtype": "DT_INT32", "tensorShape": {}}}, "dtype": {"type": "DT_INT32"}}}, {"name": "StatefulPartitionedCall/sequential_2_1/lstm_8_1/zeros_1/Const", "op": "Const", "attr": {"value": {"tensor": {"dtype": "DT_FLOAT", "tensorShape": {}}}, "dtype": {"type": "DT_FLOAT"}}}, {"name": "StatefulPartitionedCall/sequential_2_1/lstm_8_1/TensorArrayV2Stack/TensorListStack/element_shape", "op": "Const", "attr": {"value": {"tensor": {"dtype": "DT_INT32", "tensorShape": {"dim": [{"size": "2"}]}}}, "dtype": {"type": "DT_INT32"}}}, {"name": "StatefulPartitionedCall/sequential_2_1/lstm_8_1/transpose_1/perm", "op": "Const", "attr": {"value": {"tensor": {"dtype": "DT_INT32", "tensorShape": {"dim": [{"size": "3"}]}}}, "dtype": {"type": "DT_INT32"}}}, {"name": "StatefulPartitionedCall/sequential_2_1/lstm_9_1/strided_slice/stack", "op": "Const", "attr": {"value": {"tensor": {"dtype": "DT_INT32", "tensorShape": {"dim": [{"size": "1"}]}}}, "dtype": {"type": "DT_INT32"}}}, {"name": "StatefulPartitionedCall/sequential_2_1/lstm_9_1/strided_slice/stack_1", "op": "Const", "attr": {"value": {"tensor": {"dtype": "DT_INT32", "tensorShape": {"dim": [{"size": "1"}]}}}, "dtype": {"type": "DT_INT32"}}}, {"name": "StatefulPartitionedCall/sequential_2_1/lstm_9_1/strided_slice/stack_2", "op": "Const", "attr": {"value": {"tensor": {"dtype": "DT_INT32", "tensorShape": {"dim": [{"size": "1"}]}}}, "dtype": {"type": "DT_INT32"}}}, {"name": "StatefulPartitionedCall/sequential_2_1/lstm_9_1/zeros_1/packed/1", "op": "Const", "attr": {"value": {"tensor": {"dtype": "DT_INT32", "tensorShape": {}}}, "dtype": {"type": "DT_INT32"}}}, {"name": "StatefulPartitionedCall/sequential_2_1/lstm_9_1/zeros_1/Const", "op": "Const", "attr": {"value": {"tensor": {"dtype": "DT_FLOAT", "tensorShape": {}}}, "dtype": {"type": "DT_FLOAT"}}}, {"name": "StatefulPartitionedCall/sequential_2_1/lstm_9_1/TensorArrayV2Stack/TensorListStack/element_shape", "op": "Const", "attr": {"value": {"tensor": {"dtype": "DT_INT32", "tensorShape": {"dim": [{"size": "2"}]}}}, "dtype": {"type": "DT_INT32"}}}, {"name": "StatefulPartitionedCall/sequential_2_1/lstm_9_1/transpose_1/perm", "op": "Const", "attr": {"value": {"tensor": {"dtype": "DT_INT32", "tensorShape": {"dim": [{"size": "3"}]}}}, "dtype": {"type": "DT_INT32"}}}, {"name": "StatefulPartitionedCall/sequential_2_1/lstm_10_1/strided_slice/stack", "op": "Const", "attr": {"value": {"tensor": {"dtype": "DT_INT32", "tensorShape": {"dim": [{"size": "1"}]}}}, "dtype": {"type": "DT_INT32"}}}, {"name": "StatefulPartitionedCall/sequential_2_1/lstm_10_1/strided_slice/stack_1", "op": "Const", "attr": {"value": {"tensor": {"dtype": "DT_INT32", "tensorShape": {"dim": [{"size": "1"}]}}}, "dtype": {"type": "DT_INT32"}}}, {"name": "StatefulPartitionedCall/sequential_2_1/lstm_10_1/strided_slice/stack_2", "op": "Const", "attr": {"value": {"tensor": {"dtype": "DT_INT32", "tensorShape": {"dim": [{"size": "1"}]}}}, "dtype": {"type": "DT_INT32"}}}, {"name": "StatefulPartitionedCall/sequential_2_1/lstm_10_1/zeros_1/packed/1", "op": "Const", "attr": {"value": {"tensor": {"dtype": "DT_INT32", "tensorShape": {}}}, "dtype": {"type": "DT_INT32"}}}, {"name": "StatefulPartitionedCall/sequential_2_1/lstm_10_1/zeros_1/Const", "op": "Const", "attr": {"value": {"tensor": {"dtype": "DT_FLOAT", "tensorShape": {}}}, "dtype": {"type": "DT_FLOAT"}}}, {"name": "keras_tensor_74", "op": "Placeholder", "attr": {"shape": {"shape": {"dim": [{"size": "-1"}, {"size": "100"}, {"size": "1"}]}}, "dtype": {"type": "DT_FLOAT"}}}, {"name": "StatefulPartitionedCall/sequential_2_1/lstm_11_1/TensorArrayV2_1", "op": "TensorListReserve", "input": ["StatefulPartitionedCall/sequential_2_1/lstm_11_1/TensorArrayV2_1/element_shape", "StatefulPartitionedCall/sequential_2_1/lstm_11_1/TensorArrayV2_1/num_elements"], "attr": {"shape_type": {"type": "DT_INT32"}, "_has_manual_control_dependencies": {"b": true}, "element_dtype": {"type": "DT_FLOAT"}}, "experimentalType": {"typeId": "TFT_PRODUCT", "args": [{"typeId": "TFT_ARRAY", "args": [{"typeId": "TFT_TENSOR", "args": [{"typeId": "TFT_FLOAT"}]}]}]}}, {"name": "StatefulPartitionedCall/sequential_2_1/lstm_10_1/TensorArrayV2_1", "op": "TensorListReserve", "input": ["StatefulPartitionedCall/sequential_2_1/lstm_10_1/TensorArrayV2_1/element_shape", "StatefulPartitionedCall/sequential_2_1/lstm_10_1/TensorArrayV2_1/num_elements"], "attr": {"shape_type": {"type": "DT_INT32"}, "_has_manual_control_dependencies": {"b": true}, "element_dtype": {"type": "DT_FLOAT"}}, "experimentalType": {"typeId": "TFT_PRODUCT", "args": [{"typeId": "TFT_ARRAY", "args": [{"typeId": "TFT_TENSOR", "args": [{"typeId": "TFT_FLOAT"}]}]}]}}, {"name": "StatefulPartitionedCall/sequential_2_1/lstm_9_1/TensorArrayV2_1", "op": "TensorListReserve", "input": ["StatefulPartitionedCall/sequential_2_1/lstm_9_1/TensorArrayV2_1/element_shape", "StatefulPartitionedCall/sequential_2_1/lstm_9_1/TensorArrayV2_1/num_elements"], "attr": {"shape_type": {"type": "DT_INT32"}, "_has_manual_control_dependencies": {"b": true}, "element_dtype": {"type": "DT_FLOAT"}}, "experimentalType": {"typeId": "TFT_PRODUCT", "args": [{"typeId": "TFT_ARRAY", "args": [{"typeId": "TFT_TENSOR", "args": [{"typeId": "TFT_FLOAT"}]}]}]}}, {"name": "StatefulPartitionedCall/sequential_2_1/lstm_8_1/TensorArrayV2_1", "op": "TensorListReserve", "input": ["StatefulPartitionedCall/sequential_2_1/lstm_8_1/TensorArrayV2_1/element_shape", "StatefulPartitionedCall/sequential_2_1/lstm_8_1/TensorArrayV2_1/num_elements"], "attr": {"shape_type": {"type": "DT_INT32"}, "_has_manual_control_dependencies": {"b": true}, "element_dtype": {"type": "DT_FLOAT"}}, "experimentalType": {"typeId": "TFT_PRODUCT", "args": [{"typeId": "TFT_ARRAY", "args": [{"typeId": "TFT_TENSOR", "args": [{"typeId": "TFT_FLOAT"}]}]}]}}, {"name": "StatefulPartitionedCall/sequential_2_1/lstm_8_1/transpose", "op": "Transpose", "input": ["keras_tensor_74", "StatefulPartitionedCall/sequential_2_1/lstm_8_1/transpose/perm"], "attr": {"Tperm": {"type": "DT_INT32"}, "T": {"type": "DT_FLOAT"}}}, {"name": "StatefulPartitionedCall/sequential_2_1/lstm_8_1/Shape", "op": "Shape", "input": ["keras_tensor_74"], "attr": {"T": {"type": "DT_FLOAT"}, "out_type": {"type": "DT_INT32"}}, "experimentalType": {"typeId": "TFT_PRODUCT", "args": [{"typeId": "TFT_SHAPE_TENSOR", "args": [{"typeId": "TFT_INT32"}]}]}}, {"name": "StatefulPartitionedCall/sequential_2_1/lstm_8_1/TensorArrayUnstack/TensorListFromTensor", "op": "TensorListFromTensor", "input": ["StatefulPartitionedCall/sequential_2_1/lstm_8_1/transpose", "StatefulPartitionedCall/sequential_2_1/lstm_8_1/TensorArrayUnstack/TensorListFromTensor/element_shape"], "attr": {"shape_type": {"type": "DT_INT32"}, "_has_manual_control_dependencies": {"b": true}, "element_dtype": {"type": "DT_FLOAT"}}, "experimentalType": {"typeId": "TFT_PRODUCT", "args": [{"typeId": "TFT_ARRAY", "args": [{"typeId": "TFT_TENSOR", "args": [{"typeId": "TFT_FLOAT"}]}]}]}}, {"name": "StatefulPartitionedCall/sequential_2_1/lstm_8_1/strided_slice", "op": "StridedSlice", "input": ["StatefulPartitionedCall/sequential_2_1/lstm_8_1/Shape", "StatefulPartitionedCall/sequential_2_1/lstm_8_1/strided_slice/stack", "StatefulPartitionedCall/sequential_2_1/lstm_8_1/strided_slice/stack_1", "StatefulPartitionedCall/sequential_2_1/lstm_8_1/strided_slice/stack_2"], "attr": {"shrink_axis_mask": {"i": "1"}, "Index": {"type": "DT_INT32"}, "new_axis_mask": {"i": "0"}, "begin_mask": {"i": "0"}, "T": {"type": "DT_INT32"}, "end_mask": {"i": "0"}, "ellipsis_mask": {"i": "0"}}}, {"name": "StatefulPartitionedCall/sequential_2_1/lstm_8_1/zeros/packed", "op": "Pack", "input": ["StatefulPartitionedCall/sequential_2_1/lstm_8_1/strided_slice", "StatefulPartitionedCall/sequential_2_1/lstm_8_1/zeros/packed/1"], "attr": {"N": {"i": "2"}, "axis": {"i": "0"}, "T": {"type": "DT_INT32"}}}, {"name": "StatefulPartitionedCall/sequential_2_1/lstm_8_1/zeros_1/packed", "op": "Pack", "input": ["StatefulPartitionedCall/sequential_2_1/lstm_8_1/strided_slice", "StatefulPartitionedCall/sequential_2_1/lstm_8_1/zeros_1/packed/1"], "attr": {"N": {"i": "2"}, "axis": {"i": "0"}, "T": {"type": "DT_INT32"}}}, {"name": "StatefulPartitionedCall/sequential_2_1/lstm_8_1/zeros", "op": "Fill", "input": ["StatefulPartitionedCall/sequential_2_1/lstm_8_1/zeros/packed", "StatefulPartitionedCall/sequential_2_1/lstm_8_1/zeros/Const"], "attr": {"_has_manual_control_dependencies": {"b": true}, "T": {"type": "DT_FLOAT"}, "index_type": {"type": "DT_INT32"}}}, {"name": "StatefulPartitionedCall/sequential_2_1/lstm_8_1/zeros_1", "op": "Fill", "input": ["StatefulPartitionedCall/sequential_2_1/lstm_8_1/zeros_1/packed", "StatefulPartitionedCall/sequential_2_1/lstm_8_1/zeros_1/Const"], "attr": {"_has_manual_control_dependencies": {"b": true}, "T": {"type": "DT_FLOAT"}, "index_type": {"type": "DT_INT32"}}}, {"name": "StatefulPartitionedCall/sequential_2_1/lstm_8_1/while/LoopControlInputs/_29", "op": "NoOp", "input": ["^StatefulPartitionedCall/sequential_2_1/lstm_8_1/TensorArrayUnstack/TensorListFromTensor", "^StatefulPartitionedCall/sequential_2_1/lstm_8_1/TensorArrayV2_1", "^StatefulPartitionedCall/sequential_2_1/lstm_8_1/zeros", "^StatefulPartitionedCall/sequential_2_1/lstm_8_1/zeros_1"], "attr": {"_has_manual_control_dependencies": {"b": true}}}, {"name": "StatefulPartitionedCall/sequential_2_1/lstm_8_1/while/enter/_22", "op": "Enter", "input": ["StatefulPartitionedCall/sequential_2_1/lstm_8_1/TensorArrayV2_1", "^StatefulPartitionedCall/sequential_2_1/lstm_8_1/while/LoopControlInputs/_29"], "attr": {"is_constant": {"b": false}, "frame_name": {"s": "U3RhdGVmdWxQYXJ0aXRpb25lZENhbGwvc2VxdWVudGlhbF8yXzEvbHN0bV84XzEvd2hpbGU="}, "T": {"type": "DT_VARIANT"}, "parallel_iterations": {"i": "32"}}}, {"name": "StatefulPartitionedCall/sequential_2_1/lstm_8_1/while/enter/_25", "op": "Enter", "input": ["StatefulPartitionedCall/sequential_2_1/lstm_8_1/TensorArrayUnstack/TensorListFromTensor", "^StatefulPartitionedCall/sequential_2_1/lstm_8_1/while/LoopControlInputs/_29"], "attr": {"is_constant": {"b": false}, "frame_name": {"s": "U3RhdGVmdWxQYXJ0aXRpb25lZENhbGwvc2VxdWVudGlhbF8yXzEvbHN0bV84XzEvd2hpbGU="}, "T": {"type": "DT_VARIANT"}, "parallel_iterations": {"i": "32"}}}, {"name": "StatefulPartitionedCall/sequential_2_1/lstm_8_1/while/enter/_20", "op": "Enter", "input": ["StatefulPartitionedCall/sequential_2_1/lstm_8_1/Max", "^StatefulPartitionedCall/sequential_2_1/lstm_8_1/while/LoopControlInputs/_29"], "attr": {"is_constant": {"b": false}, "frame_name": {"s": "U3RhdGVmdWxQYXJ0aXRpb25lZENhbGwvc2VxdWVudGlhbF8yXzEvbHN0bV84XzEvd2hpbGU="}, "T": {"type": "DT_INT32"}, "parallel_iterations": {"i": "32"}}}, {"name": "StatefulPartitionedCall/sequential_2_1/lstm_8_1/while/enter/_19", "op": "Enter", "input": ["StatefulPartitionedCall/sequential_2_1/lstm_8_1/while/loop_counter", "^StatefulPartitionedCall/sequential_2_1/lstm_8_1/while/LoopControlInputs/_29"], "attr": {"is_constant": {"b": false}, "frame_name": {"s": "U3RhdGVmdWxQYXJ0aXRpb25lZENhbGwvc2VxdWVudGlhbF8yXzEvbHN0bV84XzEvd2hpbGU="}, "T": {"type": "DT_INT32"}, "parallel_iterations": {"i": "32"}}}, {"name": "StatefulPartitionedCall/sequential_2_1/lstm_8_1/while/enter/_23", "op": "Enter", "input": ["StatefulPartitionedCall/sequential_2_1/lstm_8_1/zeros", "^StatefulPartitionedCall/sequential_2_1/lstm_8_1/while/LoopControlInputs/_29"], "attr": {"is_constant": {"b": false}, "frame_name": {"s": "U3RhdGVmdWxQYXJ0aXRpb25lZENhbGwvc2VxdWVudGlhbF8yXzEvbHN0bV84XzEvd2hpbGU="}, "T": {"type": "DT_FLOAT"}, "parallel_iterations": {"i": "32"}}}, {"name": "StatefulPartitionedCall/sequential_2_1/lstm_8_1/while/enter/_24", "op": "Enter", "input": ["StatefulPartitionedCall/sequential_2_1/lstm_8_1/zeros_1", "^StatefulPartitionedCall/sequential_2_1/lstm_8_1/while/LoopControlInputs/_29"], "attr": {"is_constant": {"b": false}, "frame_name": {"s": "U3RhdGVmdWxQYXJ0aXRpb25lZENhbGwvc2VxdWVudGlhbF8yXzEvbHN0bV84XzEvd2hpbGU="}, "T": {"type": "DT_FLOAT"}, "parallel_iterations": {"i": "32"}}}, {"name": "StatefulPartitionedCall/sequential_2_1/lstm_8_1/while/enter/_21", "op": "Enter", "input": ["StatefulPartitionedCall/sequential_2_1/lstm_8_1/time", "^StatefulPartitionedCall/sequential_2_1/lstm_8_1/while/LoopControlInputs/_29"], "attr": {"is_constant": {"b": false}, "frame_name": {"s": "U3RhdGVmdWxQYXJ0aXRpb25lZENhbGwvc2VxdWVudGlhbF8yXzEvbHN0bV84XzEvd2hpbGU="}, "T": {"type": "DT_INT32"}, "parallel_iterations": {"i": "32"}}}, {"name": "StatefulPartitionedCall/sequential_2_1/lstm_8_1/while/enter/_26", "op": "Enter", "input": ["Func/StatefulPartitionedCall/input/_1", "^StatefulPartitionedCall/sequential_2_1/lstm_8_1/while/LoopControlInputs/_29"], "attr": {"is_constant": {"b": true}, "frame_name": {"s": "U3RhdGVmdWxQYXJ0aXRpb25lZENhbGwvc2VxdWVudGlhbF8yXzEvbHN0bV84XzEvd2hpbGU="}, "T": {"type": "DT_FLOAT"}, "_has_manual_control_dependencies": {"b": true}, "parallel_iterations": {"i": "32"}}}, {"name": "StatefulPartitionedCall/sequential_2_1/lstm_8_1/while/enter/_27", "op": "Enter", "input": ["Func/StatefulPartitionedCall/input/_2", "^StatefulPartitionedCall/sequential_2_1/lstm_8_1/while/LoopControlInputs/_29"], "attr": {"is_constant": {"b": true}, "_has_manual_control_dependencies": {"b": true}, "T": {"type": "DT_FLOAT"}, "frame_name": {"s": "U3RhdGVmdWxQYXJ0aXRpb25lZENhbGwvc2VxdWVudGlhbF8yXzEvbHN0bV84XzEvd2hpbGU="}, "parallel_iterations": {"i": "32"}}}, {"name": "StatefulPartitionedCall/sequential_2_1/lstm_8_1/while/enter/_28", "op": "Enter", "input": ["Func/StatefulPartitionedCall/input/_3", "^StatefulPartitionedCall/sequential_2_1/lstm_8_1/while/LoopControlInputs/_29"], "attr": {"is_constant": {"b": true}, "frame_name": {"s": "U3RhdGVmdWxQYXJ0aXRpb25lZENhbGwvc2VxdWVudGlhbF8yXzEvbHN0bV84XzEvd2hpbGU="}, "T": {"type": "DT_FLOAT"}, "_has_manual_control_dependencies": {"b": true}, "parallel_iterations": {"i": "32"}}}, {"name": "StatefulPartitionedCall/sequential_2_1/lstm_8_1/while/merge/_33", "op": "Merge", "input": ["StatefulPartitionedCall/sequential_2_1/lstm_8_1/while/enter/_22", "StatefulPartitionedCall/sequential_2_1/lstm_8_1/while/next_iteration/_57"], "attr": {"N": {"i": "2"}, "_has_manual_control_dependencies": {"b": true}, "T": {"type": "DT_VARIANT"}}}, {"name": "StatefulPartitionedCall/sequential_2_1/lstm_8_1/while/merge/_36", "op": "Merge", "input": ["StatefulPartitionedCall/sequential_2_1/lstm_8_1/while/enter/_25", "StatefulPartitionedCall/sequential_2_1/lstm_8_1/while/next_iteration/_60"], "attr": {"N": {"i": "2"}, "_has_manual_control_dependencies": {"b": true}, "T": {"type": "DT_VARIANT"}}}, {"name": "StatefulPartitionedCall/sequential_2_1/lstm_8_1/while/merge/_31", "op": "Merge", "input": ["StatefulPartitionedCall/sequential_2_1/lstm_8_1/while/enter/_20", "StatefulPartitionedCall/sequential_2_1/lstm_8_1/while/next_iteration/_55"], "attr": {"N": {"i": "2"}, "T": {"type": "DT_INT32"}}}, {"name": "StatefulPartitionedCall/sequential_2_1/lstm_8_1/while/merge/_30", "op": "Merge", "input": ["StatefulPartitionedCall/sequential_2_1/lstm_8_1/while/enter/_19", "StatefulPartitionedCall/sequential_2_1/lstm_8_1/while/next_iteration/_54"], "attr": {"N": {"i": "2"}, "_has_manual_control_dependencies": {"b": true}, "T": {"type": "DT_INT32"}}}, {"name": "StatefulPartitionedCall/sequential_2_1/lstm_8_1/while/merge/_34", "op": "Merge", "input": ["StatefulPartitionedCall/sequential_2_1/lstm_8_1/while/enter/_23", "StatefulPartitionedCall/sequential_2_1/lstm_8_1/while/next_iteration/_58"], "attr": {"N": {"i": "2"}, "_has_manual_control_dependencies": {"b": true}, "T": {"type": "DT_FLOAT"}}}, {"name": "StatefulPartitionedCall/sequential_2_1/lstm_8_1/while/merge/_35", "op": "Merge", "input": ["StatefulPartitionedCall/sequential_2_1/lstm_8_1/while/enter/_24", "StatefulPartitionedCall/sequential_2_1/lstm_8_1/while/next_iteration/_59"], "attr": {"N": {"i": "2"}, "_has_manual_control_dependencies": {"b": true}, "T": {"type": "DT_FLOAT"}}}, {"name": "StatefulPartitionedCall/sequential_2_1/lstm_8_1/while/merge/_32", "op": "Merge", "input": ["StatefulPartitionedCall/sequential_2_1/lstm_8_1/while/enter/_21", "StatefulPartitionedCall/sequential_2_1/lstm_8_1/while/next_iteration/_56"], "attr": {"N": {"i": "2"}, "_has_manual_control_dependencies": {"b": true}, "T": {"type": "DT_INT32"}}}, {"name": "Func/StatefulPartitionedCall/sequential_2_1/lstm_8_1/while/cond/_17/input_control_node/_193", "op": "NoOp", "input": ["^StatefulPartitionedCall/sequential_2_1/lstm_8_1/while/enter/_26", "^StatefulPartitionedCall/sequential_2_1/lstm_8_1/while/enter/_27", "^StatefulPartitionedCall/sequential_2_1/lstm_8_1/while/enter/_28", "^StatefulPartitionedCall/sequential_2_1/lstm_8_1/while/merge/_30", "^StatefulPartitionedCall/sequential_2_1/lstm_8_1/while/merge/_31", "^StatefulPartitionedCall/sequential_2_1/lstm_8_1/while/merge/_32", "^StatefulPartitionedCall/sequential_2_1/lstm_8_1/while/merge/_33", "^StatefulPartitionedCall/sequential_2_1/lstm_8_1/while/merge/_34", "^StatefulPartitionedCall/sequential_2_1/lstm_8_1/while/merge/_35", "^StatefulPartitionedCall/sequential_2_1/lstm_8_1/while/merge/_36"], "attr": {"_has_manual_control_dependencies": {"b": true}}}, {"name": "StatefulPartitionedCall/sequential_2_1/lstm_8_1/while/cond/_17/sequential_2_1/lstm_8_1/while/Less_1", "op": "Less", "input": ["StatefulPartitionedCall/sequential_2_1/lstm_8_1/while/merge/_30", "StatefulPartitionedCall/sequential_2_1/lstm_8_1/while/merge/_31", "^Func/StatefulPartitionedCall/sequential_2_1/lstm_8_1/while/cond/_17/input_control_node/_193"], "attr": {"T": {"type": "DT_INT32"}}}, {"name": "StatefulPartitionedCall/sequential_2_1/lstm_8_1/while/cond/_17/sequential_2_1/lstm_8_1/while/Less/y", "op": "Const", "input": ["^Func/StatefulPartitionedCall/sequential_2_1/lstm_8_1/while/cond/_17/input_control_node/_193"], "attr": {"value": {"tensor": {"dtype": "DT_INT32", "tensorShape": {}}}, "dtype": {"type": "DT_INT32"}}}, {"name": "StatefulPartitionedCall/sequential_2_1/lstm_8_1/while/cond/_17/sequential_2_1/lstm_8_1/while/Less", "op": "Less", "input": ["StatefulPartitionedCall/sequential_2_1/lstm_8_1/while/merge/_32", "StatefulPartitionedCall/sequential_2_1/lstm_8_1/while/cond/_17/sequential_2_1/lstm_8_1/while/Less/y"], "attr": {"T": {"type": "DT_INT32"}}}, {"name": "StatefulPartitionedCall/sequential_2_1/lstm_8_1/while/cond/_17/sequential_2_1/lstm_8_1/while/LogicalAnd", "op": "LogicalAnd", "input": ["StatefulPartitionedCall/sequential_2_1/lstm_8_1/while/cond/_17/sequential_2_1/lstm_8_1/while/Less_1", "StatefulPartitionedCall/sequential_2_1/lstm_8_1/while/cond/_17/sequential_2_1/lstm_8_1/while/Less"]}, {"name": "StatefulPartitionedCall/sequential_2_1/lstm_8_1/while/LoopCond/_37", "op": "LoopCond", "input": ["StatefulPartitionedCall/sequential_2_1/lstm_8_1/while/cond/_17/sequential_2_1/lstm_8_1/while/LogicalAnd"]}, {"name": "StatefulPartitionedCall/sequential_2_1/lstm_8_1/while/StatefulPartitionedCall/sequential_2_1/lstm_8_1/Max_switch/_39", "op": "Switch", "input": ["StatefulPartitionedCall/sequential_2_1/lstm_8_1/while/merge/_31", "StatefulPartitionedCall/sequential_2_1/lstm_8_1/while/LoopCond/_37"], "attr": {"T": {"type": "DT_INT32"}}}, {"name": "StatefulPartitionedCall/sequential_2_1/lstm_8_1/while/StatefulPartitionedCall/sequential_2_1/lstm_8_1/while/loop_counter_switch/_38", "op": "Switch", "input": ["StatefulPartitionedCall/sequential_2_1/lstm_8_1/while/merge/_30", "StatefulPartitionedCall/sequential_2_1/lstm_8_1/while/LoopCond/_37"], "attr": {"_has_manual_control_dependencies": {"b": true}, "T": {"type": "DT_INT32"}}}, {"name": "StatefulPartitionedCall/sequential_2_1/lstm_8_1/while/StatefulPartitionedCall/sequential_2_1/lstm_8_1/zeros_1_switch/_43", "op": "Switch", "input": ["StatefulPartitionedCall/sequential_2_1/lstm_8_1/while/merge/_35", "StatefulPartitionedCall/sequential_2_1/lstm_8_1/while/LoopCond/_37"], "attr": {"T": {"type": "DT_FLOAT"}}}, {"name": "StatefulPartitionedCall/sequential_2_1/lstm_8_1/while/StatefulPartitionedCall/sequential_2_1/lstm_8_1/TensorArrayUnstack/TensorListFromTensor_switch/_44", "op": "Switch", "input": ["StatefulPartitionedCall/sequential_2_1/lstm_8_1/while/merge/_36", "StatefulPartitionedCall/sequential_2_1/lstm_8_1/while/LoopCond/_37"], "attr": {"T": {"type": "DT_VARIANT"}}}, {"name": "StatefulPartitionedCall/sequential_2_1/lstm_8_1/while/StatefulPartitionedCall/sequential_2_1/lstm_8_1/time_switch/_40", "op": "Switch", "input": ["StatefulPartitionedCall/sequential_2_1/lstm_8_1/while/merge/_32", "StatefulPartitionedCall/sequential_2_1/lstm_8_1/while/LoopCond/_37"], "attr": {"T": {"type": "DT_INT32"}}}, {"name": "StatefulPartitionedCall/sequential_2_1/lstm_8_1/while/StatefulPartitionedCall/sequential_2_1/lstm_8_1/zeros_switch/_42", "op": "Switch", "input": ["StatefulPartitionedCall/sequential_2_1/lstm_8_1/while/merge/_34", "StatefulPartitionedCall/sequential_2_1/lstm_8_1/while/LoopCond/_37"], "attr": {"T": {"type": "DT_FLOAT"}}}, {"name": "StatefulPartitionedCall/sequential_2_1/lstm_8_1/while/StatefulPartitionedCall/sequential_2_1/lstm_8_1/TensorArrayV2_1_switch/_41", "op": "Switch", "input": ["StatefulPartitionedCall/sequential_2_1/lstm_8_1/while/merge/_33", "StatefulPartitionedCall/sequential_2_1/lstm_8_1/while/LoopCond/_37"], "attr": {"T": {"type": "DT_VARIANT"}}}, {"name": "StatefulPartitionedCall/sequential_2_1/lstm_8_1/while/exit/_47", "op": "Exit", "input": ["StatefulPartitionedCall/sequential_2_1/lstm_8_1/while/StatefulPartitionedCall/sequential_2_1/lstm_8_1/Max_switch/_39"], "attr": {"_has_manual_control_dependencies": {"b": true}, "T": {"type": "DT_INT32"}}}, {"name": "StatefulPartitionedCall/sequential_2_1/lstm_8_1/while/exit/_46", "op": "Exit", "input": ["StatefulPartitionedCall/sequential_2_1/lstm_8_1/while/StatefulPartitionedCall/sequential_2_1/lstm_8_1/while/loop_counter_switch/_38"], "attr": {"_has_manual_control_dependencies": {"b": true}, "T": {"type": "DT_INT32"}}}, {"name": "StatefulPartitionedCall/sequential_2_1/lstm_8_1/while/loop_body_control/_45", "op": "Identity", "input": ["StatefulPartitionedCall/sequential_2_1/lstm_8_1/while/StatefulPartitionedCall/sequential_2_1/lstm_8_1/while/loop_counter_switch/_38:1"], "attr": {"_has_manual_control_dependencies": {"b": true}, "T": {"type": "DT_INT32"}}}, {"name": "StatefulPartitionedCall/sequential_2_1/lstm_8_1/while/exit/_51", "op": "Exit", "input": ["StatefulPartitionedCall/sequential_2_1/lstm_8_1/while/StatefulPartitionedCall/sequential_2_1/lstm_8_1/zeros_1_switch/_43"], "attr": {"_has_manual_control_dependencies": {"b": true}, "T": {"type": "DT_FLOAT"}}}, {"name": "StatefulPartitionedCall/sequential_2_1/lstm_8_1/while/exit/_52", "op": "Exit", "input": ["StatefulPartitionedCall/sequential_2_1/lstm_8_1/while/StatefulPartitionedCall/sequential_2_1/lstm_8_1/TensorArrayUnstack/TensorListFromTensor_switch/_44"], "attr": {"_has_manual_control_dependencies": {"b": true}, "T": {"type": "DT_VARIANT"}}}, {"name": "StatefulPartitionedCall/sequential_2_1/lstm_8_1/while/exit/_48", "op": "Exit", "input": ["StatefulPartitionedCall/sequential_2_1/lstm_8_1/while/StatefulPartitionedCall/sequential_2_1/lstm_8_1/time_switch/_40"], "attr": {"_has_manual_control_dependencies": {"b": true}, "T": {"type": "DT_INT32"}}}, {"name": "StatefulPartitionedCall/sequential_2_1/lstm_8_1/while/exit/_50", "op": "Exit", "input": ["StatefulPartitionedCall/sequential_2_1/lstm_8_1/while/StatefulPartitionedCall/sequential_2_1/lstm_8_1/zeros_switch/_42"], "attr": {"_has_manual_control_dependencies": {"b": true}, "T": {"type": "DT_FLOAT"}}}, {"name": "StatefulPartitionedCall/sequential_2_1/lstm_8_1/while/exit/_49", "op": "Exit", "input": ["StatefulPartitionedCall/sequential_2_1/lstm_8_1/while/StatefulPartitionedCall/sequential_2_1/lstm_8_1/TensorArrayV2_1_switch/_41"], "attr": {"_has_manual_control_dependencies": {"b": true}, "T": {"type": "DT_VARIANT"}}}, {"name": "Func/StatefulPartitionedCall/sequential_2_1/lstm_8_1/while/body/_18/input_control_node/_205", "op": "NoOp", "input": ["^StatefulPartitionedCall/sequential_2_1/lstm_8_1/while/StatefulPartitionedCall/sequential_2_1/lstm_8_1/Max_switch/_39", "^StatefulPartitionedCall/sequential_2_1/lstm_8_1/while/StatefulPartitionedCall/sequential_2_1/lstm_8_1/TensorArrayUnstack/TensorListFromTensor_switch/_44", "^StatefulPartitionedCall/sequential_2_1/lstm_8_1/while/StatefulPartitionedCall/sequential_2_1/lstm_8_1/TensorArrayV2_1_switch/_41", "^StatefulPartitionedCall/sequential_2_1/lstm_8_1/while/StatefulPartitionedCall/sequential_2_1/lstm_8_1/time_switch/_40", "^StatefulPartitionedCall/sequential_2_1/lstm_8_1/while/loop_body_control/_45", "^StatefulPartitionedCall/sequential_2_1/lstm_8_1/while/StatefulPartitionedCall/sequential_2_1/lstm_8_1/zeros_1_switch/_43", "^StatefulPartitionedCall/sequential_2_1/lstm_8_1/while/StatefulPartitionedCall/sequential_2_1/lstm_8_1/zeros_switch/_42", "^StatefulPartitionedCall/sequential_2_1/lstm_8_1/while/enter/_26", "^StatefulPartitionedCall/sequential_2_1/lstm_8_1/while/enter/_27", "^StatefulPartitionedCall/sequential_2_1/lstm_8_1/while/enter/_28"], "attr": {"_has_manual_control_dependencies": {"b": true}}}, {"name": "StatefulPartitionedCall/sequential_2_1/lstm_8_1/TensorArrayV2Stack/TensorListStack", "op": "TensorListStack", "input": ["StatefulPartitionedCall/sequential_2_1/lstm_8_1/while/exit/_49", "StatefulPartitionedCall/sequential_2_1/lstm_8_1/TensorArrayV2Stack/TensorListStack/element_shape"], "attr": {"num_elements": {"i": "100"}, "element_dtype": {"type": "DT_FLOAT"}}}, {"name": "StatefulPartitionedCall/sequential_2_1/lstm_8_1/while/body/_18/sequential_2_1/lstm_8_1/while/add_1/y", "op": "Const", "input": ["^Func/StatefulPartitionedCall/sequential_2_1/lstm_8_1/while/body/_18/input_control_node/_205"], "attr": {"value": {"tensor": {"dtype": "DT_INT32", "tensorShape": {}}}, "dtype": {"type": "DT_INT32"}}}, {"name": "StatefulPartitionedCall/sequential_2_1/lstm_8_1/while/body/_18/sequential_2_1/lstm_8_1/while/lstm_cell_1/split/split_dim", "op": "Const", "input": ["^Func/StatefulPartitionedCall/sequential_2_1/lstm_8_1/while/body/_18/input_control_node/_205"], "attr": {"value": {"tensor": {"dtype": "DT_INT32", "tensorShape": {}}}, "dtype": {"type": "DT_INT32"}}}, {"name": "StatefulPartitionedCall/sequential_2_1/lstm_8_1/while/body/_18/sequential_2_1/lstm_8_1/while/add/y", "op": "Const", "input": ["^Func/StatefulPartitionedCall/sequential_2_1/lstm_8_1/while/body/_18/input_control_node/_205"], "attr": {"value": {"tensor": {"dtype": "DT_INT32", "tensorShape": {}}}, "dtype": {"type": "DT_INT32"}}}, {"name": "Func/StatefulPartitionedCall/sequential_2_1/lstm_8_1/while/body/_18/input/_208", "op": "Identity", "input": ["StatefulPartitionedCall/sequential_2_1/lstm_8_1/while/StatefulPartitionedCall/sequential_2_1/lstm_8_1/time_switch/_40:1", "^Func/StatefulPartitionedCall/sequential_2_1/lstm_8_1/while/body/_18/input_control_node/_205"], "attr": {"T": {"type": "DT_INT32"}}}, {"name": "StatefulPartitionedCall/sequential_2_1/lstm_8_1/while/body/_18/sequential_2_1/lstm_8_1/while/TensorArrayV2Read/TensorListGetItem/element_shape", "op": "Const", "input": ["^Func/StatefulPartitionedCall/sequential_2_1/lstm_8_1/while/body/_18/input_control_node/_205"], "attr": {"value": {"tensor": {"dtype": "DT_INT32", "tensorShape": {"dim": [{"size": "2"}]}}}, "dtype": {"type": "DT_INT32"}}}, {"name": "StatefulPartitionedCall/sequential_2_1/lstm_8_1/while/body/_18/sequential_2_1/lstm_8_1/while/lstm_cell_1/Cast/ReadVariableOp", "op": "Const", "input": ["^StatefulPartitionedCall/sequential_2_1/lstm_8_1/while/enter/_26", "^Func/StatefulPartitionedCall/sequential_2_1/lstm_8_1/while/body/_18/input_control_node/_205"], "attr": {"value": {"tensor": {"dtype": "DT_FLOAT", "tensorShape": {"dim": [{"size": "1"}, {"size": "600"}]}}}, "dtype": {"type": "DT_FLOAT"}}}, {"name": "StatefulPartitionedCall/sequential_2_1/lstm_8_1/while/body/_18/sequential_2_1/lstm_8_1/while/lstm_cell_1/Cast_1/ReadVariableOp", "op": "Const", "input": ["^StatefulPartitionedCall/sequential_2_1/lstm_8_1/while/enter/_27", "^Func/StatefulPartitionedCall/sequential_2_1/lstm_8_1/while/body/_18/input_control_node/_205"], "attr": {"value": {"tensor": {"dtype": "DT_FLOAT", "tensorShape": {"dim": [{"size": "150"}, {"size": "600"}]}}}, "dtype": {"type": "DT_FLOAT"}}}, {"name": "StatefulPartitionedCall/sequential_2_1/lstm_8_1/while/body/_18/sequential_2_1/lstm_8_1/while/lstm_cell_1/add_1/ReadVariableOp", "op": "Const", "input": ["^StatefulPartitionedCall/sequential_2_1/lstm_8_1/while/enter/_28", "^Func/StatefulPartitionedCall/sequential_2_1/lstm_8_1/while/body/_18/input_control_node/_205"], "attr": {"value": {"tensor": {"dtype": "DT_FLOAT", "tensorShape": {"dim": [{"size": "600"}]}}}, "dtype": {"type": "DT_FLOAT"}}}, {"name": "StatefulPartitionedCall/sequential_2_1/lstm_9_1/TensorArrayUnstack/TensorListFromTensor", "op": "TensorListFromTensor", "input": ["StatefulPartitionedCall/sequential_2_1/lstm_8_1/TensorArrayV2Stack/TensorListStack", "StatefulPartitionedCall/sequential_2_1/lstm_9_1/TensorArrayUnstack/TensorListFromTensor/element_shape"], "attr": {"shape_type": {"type": "DT_INT32"}, "_has_manual_control_dependencies": {"b": true}, "element_dtype": {"type": "DT_FLOAT"}}, "experimentalType": {"typeId": "TFT_PRODUCT", "args": [{"typeId": "TFT_ARRAY", "args": [{"typeId": "TFT_TENSOR", "args": [{"typeId": "TFT_FLOAT"}]}]}]}}, {"name": "StatefulPartitionedCall/sequential_2_1/lstm_8_1/transpose_1", "op": "Transpose", "input": ["StatefulPartitionedCall/sequential_2_1/lstm_8_1/TensorArrayV2Stack/TensorListStack", "StatefulPartitionedCall/sequential_2_1/lstm_8_1/transpose_1/perm"], "attr": {"Tperm": {"type": "DT_INT32"}, "T": {"type": "DT_FLOAT"}}}, {"name": "StatefulPartitionedCall/sequential_2_1/lstm_8_1/while/body/_18/sequential_2_1/lstm_8_1/while/add_1", "op": "AddV2", "input": ["StatefulPartitionedCall/sequential_2_1/lstm_8_1/while/StatefulPartitionedCall/sequential_2_1/lstm_8_1/while/loop_counter_switch/_38:1", "StatefulPartitionedCall/sequential_2_1/lstm_8_1/while/body/_18/sequential_2_1/lstm_8_1/while/add_1/y"], "attr": {"T": {"type": "DT_INT32"}}}, {"name": "StatefulPartitionedCall/sequential_2_1/lstm_8_1/while/body/_18/sequential_2_1/lstm_8_1/while/add", "op": "AddV2", "input": ["Func/StatefulPartitionedCall/sequential_2_1/lstm_8_1/while/body/_18/input/_208", "StatefulPartitionedCall/sequential_2_1/lstm_8_1/while/body/_18/sequential_2_1/lstm_8_1/while/add/y"], "attr": {"T": {"type": "DT_INT32"}}}, {"name": "StatefulPartitionedCall/sequential_2_1/lstm_8_1/while/body/_18/sequential_2_1/lstm_8_1/while/TensorArrayV2Read/TensorListGetItem", "op": "TensorListGetItem", "input": ["StatefulPartitionedCall/sequential_2_1/lstm_8_1/while/StatefulPartitionedCall/sequential_2_1/lstm_8_1/TensorArrayUnstack/TensorListFromTensor_switch/_44:1", "Func/StatefulPartitionedCall/sequential_2_1/lstm_8_1/while/body/_18/input/_208", "StatefulPartitionedCall/sequential_2_1/lstm_8_1/while/body/_18/sequential_2_1/lstm_8_1/while/TensorArrayV2Read/TensorListGetItem/element_shape"], "attr": {"element_dtype": {"type": "DT_FLOAT"}}}, {"name": "StatefulPartitionedCall/sequential_2_1/lstm_8_1/while/body/_18/sequential_2_1/lstm_8_1/while/lstm_cell_1/MatMul_1", "op": "MatMul", "input": ["StatefulPartitionedCall/sequential_2_1/lstm_8_1/while/StatefulPartitionedCall/sequential_2_1/lstm_8_1/zeros_switch/_42:1", "StatefulPartitionedCall/sequential_2_1/lstm_8_1/while/body/_18/sequential_2_1/lstm_8_1/while/lstm_cell_1/Cast_1/ReadVariableOp"], "device": "/device:CPU:0", "attr": {"transpose_a": {"b": false}, "grad_a": {"b": false}, "T": {"type": "DT_FLOAT"}, "grad_b": {"b": false}, "transpose_b": {"b": false}}}, {"name": "Func/StatefulPartitionedCall/sequential_2_1/lstm_8_1/while/body/_18/output_control_node/_226", "op": "NoOp", "input": ["^StatefulPartitionedCall/sequential_2_1/lstm_8_1/while/body/_18/sequential_2_1/lstm_8_1/while/lstm_cell_1/Cast/ReadVariableOp", "^StatefulPartitionedCall/sequential_2_1/lstm_8_1/while/body/_18/sequential_2_1/lstm_8_1/while/lstm_cell_1/Cast_1/ReadVariableOp", "^StatefulPartitionedCall/sequential_2_1/lstm_8_1/while/body/_18/sequential_2_1/lstm_8_1/while/lstm_cell_1/add_1/ReadVariableOp"], "attr": {"_has_manual_control_dependencies": {"b": true}}}, {"name": "StatefulPartitionedCall/sequential_2_1/lstm_8_1/while/body/_18/sequential_2_1/lstm_8_1/while/NoOp", "op": "NoOp", "input": ["^StatefulPartitionedCall/sequential_2_1/lstm_8_1/while/body/_18/sequential_2_1/lstm_8_1/while/lstm_cell_1/Cast/ReadVariableOp", "^StatefulPartitionedCall/sequential_2_1/lstm_8_1/while/body/_18/sequential_2_1/lstm_8_1/while/lstm_cell_1/Cast_1/ReadVariableOp", "^StatefulPartitionedCall/sequential_2_1/lstm_8_1/while/body/_18/sequential_2_1/lstm_8_1/while/lstm_cell_1/add_1/ReadVariableOp"], "attr": {"_has_manual_control_dependencies": {"b": true}}}, {"name": "StatefulPartitionedCall/sequential_2_1/lstm_9_1/Shape", "op": "Shape", "input": ["StatefulPartitionedCall/sequential_2_1/lstm_8_1/transpose_1"], "attr": {"T": {"type": "DT_FLOAT"}, "out_type": {"type": "DT_INT32"}}, "experimentalType": {"typeId": "TFT_PRODUCT", "args": [{"typeId": "TFT_SHAPE_TENSOR", "args": [{"typeId": "TFT_INT32"}]}]}}, {"name": "StatefulPartitionedCall/sequential_2_1/lstm_8_1/while/body/_18/sequential_2_1/lstm_8_1/while/lstm_cell_1/add", "op": "AddV2", "input": ["StatefulPartitionedCall/sequential_2_1/lstm_8_1/while/body/_18/sequential_2_1/lstm_8_1/while/lstm_cell_1/add_1/ReadVariableOp", "StatefulPartitionedCall/sequential_2_1/lstm_8_1/while/body/_18/sequential_2_1/lstm_8_1/while/lstm_cell_1/MatMul_1"], "attr": {"T": {"type": "DT_FLOAT"}}}, {"name": "StatefulPartitionedCall/sequential_2_1/lstm_8_1/while/next_iteration/_60", "op": "NextIteration", "input": ["StatefulPartitionedCall/sequential_2_1/lstm_8_1/while/StatefulPartitionedCall/sequential_2_1/lstm_8_1/TensorArrayUnstack/TensorListFromTensor_switch/_44:1", "^Func/StatefulPartitionedCall/sequential_2_1/lstm_8_1/while/body/_18/output_control_node/_226", "^Func/StatefulPartitionedCall/sequential_2_1/lstm_8_1/while/body/_18/input_control_node/_205"], "attr": {"T": {"type": "DT_VARIANT"}}}, {"name": "StatefulPartitionedCall/sequential_2_1/lstm_8_1/while/next_iteration/_55", "op": "NextIteration", "input": ["StatefulPartitionedCall/sequential_2_1/lstm_8_1/while/StatefulPartitionedCall/sequential_2_1/lstm_8_1/Max_switch/_39:1", "^Func/StatefulPartitionedCall/sequential_2_1/lstm_8_1/while/body/_18/output_control_node/_226", "^StatefulPartitionedCall/sequential_2_1/lstm_8_1/while/body/_18/sequential_2_1/lstm_8_1/while/NoOp", "^Func/StatefulPartitionedCall/sequential_2_1/lstm_8_1/while/body/_18/input_control_node/_205"], "attr": {"T": {"type": "DT_INT32"}}}, {"name": "StatefulPartitionedCall/sequential_2_1/lstm_8_1/while/next_iteration/_54", "op": "NextIteration", "input": ["StatefulPartitionedCall/sequential_2_1/lstm_8_1/while/body/_18/sequential_2_1/lstm_8_1/while/add_1", "^Func/StatefulPartitionedCall/sequential_2_1/lstm_8_1/while/body/_18/output_control_node/_226", "^StatefulPartitionedCall/sequential_2_1/lstm_8_1/while/body/_18/sequential_2_1/lstm_8_1/while/NoOp"], "attr": {"T": {"type": "DT_INT32"}}}, {"name": "StatefulPartitionedCall/sequential_2_1/lstm_8_1/while/next_iteration/_56", "op": "NextIteration", "input": ["StatefulPartitionedCall/sequential_2_1/lstm_8_1/while/body/_18/sequential_2_1/lstm_8_1/while/add", "^Func/StatefulPartitionedCall/sequential_2_1/lstm_8_1/while/body/_18/output_control_node/_226", "^StatefulPartitionedCall/sequential_2_1/lstm_8_1/while/body/_18/sequential_2_1/lstm_8_1/while/NoOp"], "attr": {"T": {"type": "DT_INT32"}}}, {"name": "StatefulPartitionedCall/sequential_2_1/lstm_9_1/strided_slice", "op": "StridedSlice", "input": ["StatefulPartitionedCall/sequential_2_1/lstm_9_1/Shape", "StatefulPartitionedCall/sequential_2_1/lstm_9_1/strided_slice/stack", "StatefulPartitionedCall/sequential_2_1/lstm_9_1/strided_slice/stack_1", "StatefulPartitionedCall/sequential_2_1/lstm_9_1/strided_slice/stack_2"], "attr": {"shrink_axis_mask": {"i": "1"}, "new_axis_mask": {"i": "0"}, "Index": {"type": "DT_INT32"}, "begin_mask": {"i": "0"}, "end_mask": {"i": "0"}, "T": {"type": "DT_INT32"}, "ellipsis_mask": {"i": "0"}}}, {"name": "StatefulPartitionedCall/sequential_2_1/lstm_8_1/while/body/_18/sequential_2_1/lstm_8_1/while/lstm_cell_1/add_1", "op": "_FusedMatMul", "input": ["StatefulPartitionedCall/sequential_2_1/lstm_8_1/while/body/_18/sequential_2_1/lstm_8_1/while/TensorArrayV2Read/TensorListGetItem", "StatefulPartitionedCall/sequential_2_1/lstm_8_1/while/body/_18/sequential_2_1/lstm_8_1/while/lstm_cell_1/Cast/ReadVariableOp", "StatefulPartitionedCall/sequential_2_1/lstm_8_1/while/body/_18/sequential_2_1/lstm_8_1/while/lstm_cell_1/add"], "device": "/device:CPU:0", "attr": {"transpose_a": {"b": false}, "transpose_b": {"b": false}, "fused_ops": {"list": {"s": ["Qmlhc0FkZA=="]}}, "num_args": {"i": "1"}, "leakyrelu_alpha": {"f": 0.2}, "epsilon": {"f": 0.0}, "T": {"type": "DT_FLOAT"}}}, {"name": "StatefulPartitionedCall/sequential_2_1/lstm_9_1/zeros/packed", "op": "Pack", "input": ["StatefulPartitionedCall/sequential_2_1/lstm_9_1/strided_slice", "StatefulPartitionedCall/sequential_2_1/lstm_9_1/zeros/packed/1"], "attr": {"N": {"i": "2"}, "axis": {"i": "0"}, "T": {"type": "DT_INT32"}}}, {"name": "StatefulPartitionedCall/sequential_2_1/lstm_9_1/zeros_1/packed", "op": "Pack", "input": ["StatefulPartitionedCall/sequential_2_1/lstm_9_1/strided_slice", "StatefulPartitionedCall/sequential_2_1/lstm_9_1/zeros_1/packed/1"], "attr": {"N": {"i": "2"}, "axis": {"i": "0"}, "T": {"type": "DT_INT32"}}}, {"name": "StatefulPartitionedCall/sequential_2_1/lstm_8_1/while/body/_18/sequential_2_1/lstm_8_1/while/lstm_cell_1/split", "op": "Split", "input": ["StatefulPartitionedCall/sequential_2_1/lstm_8_1/while/body/_18/sequential_2_1/lstm_8_1/while/lstm_cell_1/split/split_dim", "StatefulPartitionedCall/sequential_2_1/lstm_8_1/while/body/_18/sequential_2_1/lstm_8_1/while/lstm_cell_1/add_1"], "attr": {"num_split": {"i": "4"}, "T": {"type": "DT_FLOAT"}}}, {"name": "StatefulPartitionedCall/sequential_2_1/lstm_9_1/zeros", "op": "Fill", "input": ["StatefulPartitionedCall/sequential_2_1/lstm_9_1/zeros/packed", "StatefulPartitionedCall/sequential_2_1/lstm_9_1/zeros/Const"], "attr": {"_has_manual_control_dependencies": {"b": true}, "T": {"type": "DT_FLOAT"}, "index_type": {"type": "DT_INT32"}}}, {"name": "StatefulPartitionedCall/sequential_2_1/lstm_9_1/zeros_1", "op": "Fill", "input": ["StatefulPartitionedCall/sequential_2_1/lstm_9_1/zeros_1/packed", "StatefulPartitionedCall/sequential_2_1/lstm_9_1/zeros_1/Const"], "attr": {"_has_manual_control_dependencies": {"b": true}, "T": {"type": "DT_FLOAT"}, "index_type": {"type": "DT_INT32"}}}, {"name": "StatefulPartitionedCall/sequential_2_1/lstm_8_1/while/body/_18/sequential_2_1/lstm_8_1/while/lstm_cell_1/Sigmoid", "op": "Sigmoid", "input": ["StatefulPartitionedCall/sequential_2_1/lstm_8_1/while/body/_18/sequential_2_1/lstm_8_1/while/lstm_cell_1/split"], "attr": {"T": {"type": "DT_FLOAT"}}}, {"name": "StatefulPartitionedCall/sequential_2_1/lstm_8_1/while/body/_18/sequential_2_1/lstm_8_1/while/lstm_cell_1/Sigmoid_1", "op": "Sigmoid", "input": ["StatefulPartitionedCall/sequential_2_1/lstm_8_1/while/body/_18/sequential_2_1/lstm_8_1/while/lstm_cell_1/split:1"], "attr": {"T": {"type": "DT_FLOAT"}}}, {"name": "StatefulPartitionedCall/sequential_2_1/lstm_8_1/while/body/_18/sequential_2_1/lstm_8_1/while/lstm_cell_1/Tanh", "op": "Tanh", "input": ["StatefulPartitionedCall/sequential_2_1/lstm_8_1/while/body/_18/sequential_2_1/lstm_8_1/while/lstm_cell_1/split:2"], "attr": {"T": {"type": "DT_FLOAT"}}}, {"name": "StatefulPartitionedCall/sequential_2_1/lstm_8_1/while/body/_18/sequential_2_1/lstm_8_1/while/lstm_cell_1/Sigmoid_2", "op": "Sigmoid", "input": ["StatefulPartitionedCall/sequential_2_1/lstm_8_1/while/body/_18/sequential_2_1/lstm_8_1/while/lstm_cell_1/split:3"], "attr": {"T": {"type": "DT_FLOAT"}}}, {"name": "StatefulPartitionedCall/sequential_2_1/lstm_9_1/while/LoopControlInputs/_73", "op": "NoOp", "input": ["^StatefulPartitionedCall/sequential_2_1/lstm_9_1/TensorArrayUnstack/TensorListFromTensor", "^StatefulPartitionedCall/sequential_2_1/lstm_9_1/TensorArrayV2_1", "^StatefulPartitionedCall/sequential_2_1/lstm_9_1/zeros", "^StatefulPartitionedCall/sequential_2_1/lstm_9_1/zeros_1"], "attr": {"_has_manual_control_dependencies": {"b": true}}}, {"name": "StatefulPartitionedCall/sequential_2_1/lstm_8_1/while/body/_18/sequential_2_1/lstm_8_1/while/lstm_cell_1/mul", "op": "Mul", "input": ["StatefulPartitionedCall/sequential_2_1/lstm_8_1/while/body/_18/sequential_2_1/lstm_8_1/while/lstm_cell_1/Sigmoid_1", "StatefulPartitionedCall/sequential_2_1/lstm_8_1/while/StatefulPartitionedCall/sequential_2_1/lstm_8_1/zeros_1_switch/_43:1"], "attr": {"T": {"type": "DT_FLOAT"}}}, {"name": "StatefulPartitionedCall/sequential_2_1/lstm_8_1/while/body/_18/sequential_2_1/lstm_8_1/while/lstm_cell_1/mul_1", "op": "Mul", "input": ["StatefulPartitionedCall/sequential_2_1/lstm_8_1/while/body/_18/sequential_2_1/lstm_8_1/while/lstm_cell_1/Sigmoid", "StatefulPartitionedCall/sequential_2_1/lstm_8_1/while/body/_18/sequential_2_1/lstm_8_1/while/lstm_cell_1/Tanh"], "attr": {"T": {"type": "DT_FLOAT"}}}, {"name": "StatefulPartitionedCall/sequential_2_1/lstm_9_1/while/enter/_66", "op": "Enter", "input": ["StatefulPartitionedCall/sequential_2_1/lstm_9_1/TensorArrayV2_1", "^StatefulPartitionedCall/sequential_2_1/lstm_9_1/while/LoopControlInputs/_73"], "attr": {"is_constant": {"b": false}, "frame_name": {"s": "U3RhdGVmdWxQYXJ0aXRpb25lZENhbGwvc2VxdWVudGlhbF8yXzEvbHN0bV85XzEvd2hpbGU="}, "T": {"type": "DT_VARIANT"}, "parallel_iterations": {"i": "32"}}}, {"name": "StatefulPartitionedCall/sequential_2_1/lstm_9_1/while/enter/_69", "op": "Enter", "input": ["StatefulPartitionedCall/sequential_2_1/lstm_9_1/TensorArrayUnstack/TensorListFromTensor", "^StatefulPartitionedCall/sequential_2_1/lstm_9_1/while/LoopControlInputs/_73"], "attr": {"is_constant": {"b": false}, "frame_name": {"s": "U3RhdGVmdWxQYXJ0aXRpb25lZENhbGwvc2VxdWVudGlhbF8yXzEvbHN0bV85XzEvd2hpbGU="}, "T": {"type": "DT_VARIANT"}, "parallel_iterations": {"i": "32"}}}, {"name": "StatefulPartitionedCall/sequential_2_1/lstm_9_1/while/enter/_64", "op": "Enter", "input": ["StatefulPartitionedCall/sequential_2_1/lstm_9_1/Max", "^StatefulPartitionedCall/sequential_2_1/lstm_9_1/while/LoopControlInputs/_73"], "attr": {"is_constant": {"b": false}, "frame_name": {"s": "U3RhdGVmdWxQYXJ0aXRpb25lZENhbGwvc2VxdWVudGlhbF8yXzEvbHN0bV85XzEvd2hpbGU="}, "T": {"type": "DT_INT32"}, "parallel_iterations": {"i": "32"}}}, {"name": "StatefulPartitionedCall/sequential_2_1/lstm_9_1/while/enter/_63", "op": "Enter", "input": ["StatefulPartitionedCall/sequential_2_1/lstm_9_1/while/loop_counter", "^StatefulPartitionedCall/sequential_2_1/lstm_9_1/while/LoopControlInputs/_73"], "attr": {"is_constant": {"b": false}, "frame_name": {"s": "U3RhdGVmdWxQYXJ0aXRpb25lZENhbGwvc2VxdWVudGlhbF8yXzEvbHN0bV85XzEvd2hpbGU="}, "T": {"type": "DT_INT32"}, "parallel_iterations": {"i": "32"}}}, {"name": "StatefulPartitionedCall/sequential_2_1/lstm_9_1/while/enter/_67", "op": "Enter", "input": ["StatefulPartitionedCall/sequential_2_1/lstm_9_1/zeros", "^StatefulPartitionedCall/sequential_2_1/lstm_9_1/while/LoopControlInputs/_73"], "attr": {"is_constant": {"b": false}, "frame_name": {"s": "U3RhdGVmdWxQYXJ0aXRpb25lZENhbGwvc2VxdWVudGlhbF8yXzEvbHN0bV85XzEvd2hpbGU="}, "T": {"type": "DT_FLOAT"}, "parallel_iterations": {"i": "32"}}}, {"name": "StatefulPartitionedCall/sequential_2_1/lstm_9_1/while/enter/_68", "op": "Enter", "input": ["StatefulPartitionedCall/sequential_2_1/lstm_9_1/zeros_1", "^StatefulPartitionedCall/sequential_2_1/lstm_9_1/while/LoopControlInputs/_73"], "attr": {"is_constant": {"b": false}, "frame_name": {"s": "U3RhdGVmdWxQYXJ0aXRpb25lZENhbGwvc2VxdWVudGlhbF8yXzEvbHN0bV85XzEvd2hpbGU="}, "T": {"type": "DT_FLOAT"}, "parallel_iterations": {"i": "32"}}}, {"name": "StatefulPartitionedCall/sequential_2_1/lstm_9_1/while/enter/_65", "op": "Enter", "input": ["StatefulPartitionedCall/sequential_2_1/lstm_9_1/time", "^StatefulPartitionedCall/sequential_2_1/lstm_9_1/while/LoopControlInputs/_73"], "attr": {"is_constant": {"b": false}, "frame_name": {"s": "U3RhdGVmdWxQYXJ0aXRpb25lZENhbGwvc2VxdWVudGlhbF8yXzEvbHN0bV85XzEvd2hpbGU="}, "T": {"type": "DT_INT32"}, "parallel_iterations": {"i": "32"}}}, {"name": "StatefulPartitionedCall/sequential_2_1/lstm_9_1/while/enter/_70", "op": "Enter", "input": ["Func/StatefulPartitionedCall/input/_4", "^StatefulPartitionedCall/sequential_2_1/lstm_9_1/while/LoopControlInputs/_73"], "attr": {"is_constant": {"b": true}, "frame_name": {"s": "U3RhdGVmdWxQYXJ0aXRpb25lZENhbGwvc2VxdWVudGlhbF8yXzEvbHN0bV85XzEvd2hpbGU="}, "T": {"type": "DT_FLOAT"}, "_has_manual_control_dependencies": {"b": true}, "parallel_iterations": {"i": "32"}}}, {"name": "StatefulPartitionedCall/sequential_2_1/lstm_9_1/while/enter/_71", "op": "Enter", "input": ["Func/StatefulPartitionedCall/input/_5", "^StatefulPartitionedCall/sequential_2_1/lstm_9_1/while/LoopControlInputs/_73"], "attr": {"is_constant": {"b": true}, "_has_manual_control_dependencies": {"b": true}, "T": {"type": "DT_FLOAT"}, "frame_name": {"s": "U3RhdGVmdWxQYXJ0aXRpb25lZENhbGwvc2VxdWVudGlhbF8yXzEvbHN0bV85XzEvd2hpbGU="}, "parallel_iterations": {"i": "32"}}}, {"name": "StatefulPartitionedCall/sequential_2_1/lstm_9_1/while/enter/_72", "op": "Enter", "input": ["Func/StatefulPartitionedCall/input/_6", "^StatefulPartitionedCall/sequential_2_1/lstm_9_1/while/LoopControlInputs/_73"], "attr": {"is_constant": {"b": true}, "frame_name": {"s": "U3RhdGVmdWxQYXJ0aXRpb25lZENhbGwvc2VxdWVudGlhbF8yXzEvbHN0bV85XzEvd2hpbGU="}, "T": {"type": "DT_FLOAT"}, "_has_manual_control_dependencies": {"b": true}, "parallel_iterations": {"i": "32"}}}, {"name": "StatefulPartitionedCall/sequential_2_1/lstm_8_1/while/body/_18/sequential_2_1/lstm_8_1/while/lstm_cell_1/add_2", "op": "AddV2", "input": ["StatefulPartitionedCall/sequential_2_1/lstm_8_1/while/body/_18/sequential_2_1/lstm_8_1/while/lstm_cell_1/mul", "StatefulPartitionedCall/sequential_2_1/lstm_8_1/while/body/_18/sequential_2_1/lstm_8_1/while/lstm_cell_1/mul_1"], "attr": {"T": {"type": "DT_FLOAT"}}}, {"name": "StatefulPartitionedCall/sequential_2_1/lstm_9_1/while/merge/_77", "op": "Merge", "input": ["StatefulPartitionedCall/sequential_2_1/lstm_9_1/while/enter/_66", "StatefulPartitionedCall/sequential_2_1/lstm_9_1/while/next_iteration/_101"], "attr": {"N": {"i": "2"}, "_has_manual_control_dependencies": {"b": true}, "T": {"type": "DT_VARIANT"}}}, {"name": "StatefulPartitionedCall/sequential_2_1/lstm_9_1/while/merge/_80", "op": "Merge", "input": ["StatefulPartitionedCall/sequential_2_1/lstm_9_1/while/enter/_69", "StatefulPartitionedCall/sequential_2_1/lstm_9_1/while/next_iteration/_104"], "attr": {"N": {"i": "2"}, "_has_manual_control_dependencies": {"b": true}, "T": {"type": "DT_VARIANT"}}}, {"name": "StatefulPartitionedCall/sequential_2_1/lstm_9_1/while/merge/_75", "op": "Merge", "input": ["StatefulPartitionedCall/sequential_2_1/lstm_9_1/while/enter/_64", "StatefulPartitionedCall/sequential_2_1/lstm_9_1/while/next_iteration/_99"], "attr": {"N": {"i": "2"}, "_has_manual_control_dependencies": {"b": true}, "T": {"type": "DT_INT32"}}}, {"name": "StatefulPartitionedCall/sequential_2_1/lstm_9_1/while/merge/_74", "op": "Merge", "input": ["StatefulPartitionedCall/sequential_2_1/lstm_9_1/while/enter/_63", "StatefulPartitionedCall/sequential_2_1/lstm_9_1/while/next_iteration/_98"], "attr": {"N": {"i": "2"}, "_has_manual_control_dependencies": {"b": true}, "T": {"type": "DT_INT32"}}}, {"name": "StatefulPartitionedCall/sequential_2_1/lstm_9_1/while/merge/_78", "op": "Merge", "input": ["StatefulPartitionedCall/sequential_2_1/lstm_9_1/while/enter/_67", "StatefulPartitionedCall/sequential_2_1/lstm_9_1/while/next_iteration/_102"], "attr": {"N": {"i": "2"}, "_has_manual_control_dependencies": {"b": true}, "T": {"type": "DT_FLOAT"}}}, {"name": "StatefulPartitionedCall/sequential_2_1/lstm_9_1/while/merge/_79", "op": "Merge", "input": ["StatefulPartitionedCall/sequential_2_1/lstm_9_1/while/enter/_68", "StatefulPartitionedCall/sequential_2_1/lstm_9_1/while/next_iteration/_103"], "attr": {"N": {"i": "2"}, "_has_manual_control_dependencies": {"b": true}, "T": {"type": "DT_FLOAT"}}}, {"name": "StatefulPartitionedCall/sequential_2_1/lstm_9_1/while/merge/_76", "op": "Merge", "input": ["StatefulPartitionedCall/sequential_2_1/lstm_9_1/while/enter/_65", "StatefulPartitionedCall/sequential_2_1/lstm_9_1/while/next_iteration/_100"], "attr": {"N": {"i": "2"}, "_has_manual_control_dependencies": {"b": true}, "T": {"type": "DT_INT32"}}}, {"name": "StatefulPartitionedCall/sequential_2_1/lstm_8_1/while/body/_18/sequential_2_1/lstm_8_1/while/lstm_cell_1/Tanh_1", "op": "Tanh", "input": ["StatefulPartitionedCall/sequential_2_1/lstm_8_1/while/body/_18/sequential_2_1/lstm_8_1/while/lstm_cell_1/add_2"], "attr": {"T": {"type": "DT_FLOAT"}}}, {"name": "StatefulPartitionedCall/sequential_2_1/lstm_8_1/while/next_iteration/_59", "op": "NextIteration", "input": ["StatefulPartitionedCall/sequential_2_1/lstm_8_1/while/body/_18/sequential_2_1/lstm_8_1/while/lstm_cell_1/add_2", "^Func/StatefulPartitionedCall/sequential_2_1/lstm_8_1/while/body/_18/output_control_node/_226", "^StatefulPartitionedCall/sequential_2_1/lstm_8_1/while/body/_18/sequential_2_1/lstm_8_1/while/NoOp"], "attr": {"T": {"type": "DT_FLOAT"}}}, {"name": "Func/StatefulPartitionedCall/sequential_2_1/lstm_9_1/while/cond/_61/input_control_node/_227", "op": "NoOp", "input": ["^StatefulPartitionedCall/sequential_2_1/lstm_9_1/while/enter/_70", "^StatefulPartitionedCall/sequential_2_1/lstm_9_1/while/enter/_71", "^StatefulPartitionedCall/sequential_2_1/lstm_9_1/while/enter/_72", "^StatefulPartitionedCall/sequential_2_1/lstm_9_1/while/merge/_74", "^StatefulPartitionedCall/sequential_2_1/lstm_9_1/while/merge/_75", "^StatefulPartitionedCall/sequential_2_1/lstm_9_1/while/merge/_76", "^StatefulPartitionedCall/sequential_2_1/lstm_9_1/while/merge/_77", "^StatefulPartitionedCall/sequential_2_1/lstm_9_1/while/merge/_78", "^StatefulPartitionedCall/sequential_2_1/lstm_9_1/while/merge/_79", "^StatefulPartitionedCall/sequential_2_1/lstm_9_1/while/merge/_80"], "attr": {"_has_manual_control_dependencies": {"b": true}}}, {"name": "StatefulPartitionedCall/sequential_2_1/lstm_8_1/while/body/_18/sequential_2_1/lstm_8_1/while/lstm_cell_1/mul_2", "op": "Mul", "input": ["StatefulPartitionedCall/sequential_2_1/lstm_8_1/while/body/_18/sequential_2_1/lstm_8_1/while/lstm_cell_1/Sigmoid_2", "StatefulPartitionedCall/sequential_2_1/lstm_8_1/while/body/_18/sequential_2_1/lstm_8_1/while/lstm_cell_1/Tanh_1"], "attr": {"T": {"type": "DT_FLOAT"}}}, {"name": "StatefulPartitionedCall/sequential_2_1/lstm_9_1/while/cond/_61/sequential_2_1/lstm_9_1/while/Less_1", "op": "Less", "input": ["StatefulPartitionedCall/sequential_2_1/lstm_9_1/while/merge/_74", "StatefulPartitionedCall/sequential_2_1/lstm_9_1/while/merge/_75", "^Func/StatefulPartitionedCall/sequential_2_1/lstm_9_1/while/cond/_61/input_control_node/_227"], "attr": {"T": {"type": "DT_INT32"}}}, {"name": "StatefulPartitionedCall/sequential_2_1/lstm_9_1/while/cond/_61/sequential_2_1/lstm_9_1/while/Less/y", "op": "Const", "input": ["^Func/StatefulPartitionedCall/sequential_2_1/lstm_9_1/while/cond/_61/input_control_node/_227"], "attr": {"value": {"tensor": {"dtype": "DT_INT32", "tensorShape": {}}}, "dtype": {"type": "DT_INT32"}}}, {"name": "StatefulPartitionedCall/sequential_2_1/lstm_8_1/while/body/_18/sequential_2_1/lstm_8_1/while/TensorArrayV2Write/TensorListSetItem", "op": "TensorListSetItem", "input": ["StatefulPartitionedCall/sequential_2_1/lstm_8_1/while/StatefulPartitionedCall/sequential_2_1/lstm_8_1/TensorArrayV2_1_switch/_41:1", "Func/StatefulPartitionedCall/sequential_2_1/lstm_8_1/while/body/_18/input/_208", "StatefulPartitionedCall/sequential_2_1/lstm_8_1/while/body/_18/sequential_2_1/lstm_8_1/while/lstm_cell_1/mul_2"], "attr": {"element_dtype": {"type": "DT_FLOAT"}, "resize_if_index_out_of_bounds": {"b": false}}, "experimentalType": {"typeId": "TFT_PRODUCT", "args": [{"typeId": "TFT_ARRAY", "args": [{"typeId": "TFT_TENSOR", "args": [{"typeId": "TFT_FLOAT"}]}]}]}}, {"name": "StatefulPartitionedCall/sequential_2_1/lstm_8_1/while/next_iteration/_58", "op": "NextIteration", "input": ["StatefulPartitionedCall/sequential_2_1/lstm_8_1/while/body/_18/sequential_2_1/lstm_8_1/while/lstm_cell_1/mul_2", "^Func/StatefulPartitionedCall/sequential_2_1/lstm_8_1/while/body/_18/output_control_node/_226", "^StatefulPartitionedCall/sequential_2_1/lstm_8_1/while/body/_18/sequential_2_1/lstm_8_1/while/NoOp"], "attr": {"T": {"type": "DT_FLOAT"}}}, {"name": "StatefulPartitionedCall/sequential_2_1/lstm_9_1/while/cond/_61/sequential_2_1/lstm_9_1/while/Less", "op": "Less", "input": ["StatefulPartitionedCall/sequential_2_1/lstm_9_1/while/merge/_76", "StatefulPartitionedCall/sequential_2_1/lstm_9_1/while/cond/_61/sequential_2_1/lstm_9_1/while/Less/y"], "attr": {"T": {"type": "DT_INT32"}}}, {"name": "StatefulPartitionedCall/sequential_2_1/lstm_8_1/while/next_iteration/_57", "op": "NextIteration", "input": ["StatefulPartitionedCall/sequential_2_1/lstm_8_1/while/body/_18/sequential_2_1/lstm_8_1/while/TensorArrayV2Write/TensorListSetItem", "^Func/StatefulPartitionedCall/sequential_2_1/lstm_8_1/while/body/_18/output_control_node/_226", "^StatefulPartitionedCall/sequential_2_1/lstm_8_1/while/body/_18/sequential_2_1/lstm_8_1/while/NoOp"], "attr": {"T": {"type": "DT_VARIANT"}}}, {"name": "StatefulPartitionedCall/sequential_2_1/lstm_9_1/while/cond/_61/sequential_2_1/lstm_9_1/while/LogicalAnd", "op": "LogicalAnd", "input": ["StatefulPartitionedCall/sequential_2_1/lstm_9_1/while/cond/_61/sequential_2_1/lstm_9_1/while/Less_1", "StatefulPartitionedCall/sequential_2_1/lstm_9_1/while/cond/_61/sequential_2_1/lstm_9_1/while/Less"]}, {"name": "StatefulPartitionedCall/sequential_2_1/lstm_9_1/while/LoopCond/_81", "op": "LoopCond", "input": ["StatefulPartitionedCall/sequential_2_1/lstm_9_1/while/cond/_61/sequential_2_1/lstm_9_1/while/LogicalAnd"]}, {"name": "StatefulPartitionedCall/sequential_2_1/lstm_9_1/while/StatefulPartitionedCall/sequential_2_1/lstm_9_1/Max_switch/_83", "op": "Switch", "input": ["StatefulPartitionedCall/sequential_2_1/lstm_9_1/while/merge/_75", "StatefulPartitionedCall/sequential_2_1/lstm_9_1/while/LoopCond/_81"], "attr": {"_has_manual_control_dependencies": {"b": true}, "T": {"type": "DT_INT32"}}}, {"name": "StatefulPartitionedCall/sequential_2_1/lstm_9_1/while/StatefulPartitionedCall/sequential_2_1/lstm_9_1/while/loop_counter_switch/_82", "op": "Switch", "input": ["StatefulPartitionedCall/sequential_2_1/lstm_9_1/while/merge/_74", "StatefulPartitionedCall/sequential_2_1/lstm_9_1/while/LoopCond/_81"], "attr": {"T": {"type": "DT_INT32"}}}, {"name": "StatefulPartitionedCall/sequential_2_1/lstm_9_1/while/StatefulPartitionedCall/sequential_2_1/lstm_9_1/zeros_1_switch/_87", "op": "Switch", "input": ["StatefulPartitionedCall/sequential_2_1/lstm_9_1/while/merge/_79", "StatefulPartitionedCall/sequential_2_1/lstm_9_1/while/LoopCond/_81"], "attr": {"_has_manual_control_dependencies": {"b": true}, "T": {"type": "DT_FLOAT"}}}, {"name": "StatefulPartitionedCall/sequential_2_1/lstm_9_1/while/StatefulPartitionedCall/sequential_2_1/lstm_9_1/TensorArrayUnstack/TensorListFromTensor_switch/_88", "op": "Switch", "input": ["StatefulPartitionedCall/sequential_2_1/lstm_9_1/while/merge/_80", "StatefulPartitionedCall/sequential_2_1/lstm_9_1/while/LoopCond/_81"], "attr": {"_has_manual_control_dependencies": {"b": true}, "T": {"type": "DT_VARIANT"}}}, {"name": "StatefulPartitionedCall/sequential_2_1/lstm_9_1/while/StatefulPartitionedCall/sequential_2_1/lstm_9_1/time_switch/_84", "op": "Switch", "input": ["StatefulPartitionedCall/sequential_2_1/lstm_9_1/while/merge/_76", "StatefulPartitionedCall/sequential_2_1/lstm_9_1/while/LoopCond/_81"], "attr": {"_has_manual_control_dependencies": {"b": true}, "T": {"type": "DT_INT32"}}}, {"name": "StatefulPartitionedCall/sequential_2_1/lstm_9_1/while/StatefulPartitionedCall/sequential_2_1/lstm_9_1/zeros_switch/_86", "op": "Switch", "input": ["StatefulPartitionedCall/sequential_2_1/lstm_9_1/while/merge/_78", "StatefulPartitionedCall/sequential_2_1/lstm_9_1/while/LoopCond/_81"], "attr": {"_has_manual_control_dependencies": {"b": true}, "T": {"type": "DT_FLOAT"}}}, {"name": "StatefulPartitionedCall/sequential_2_1/lstm_9_1/while/StatefulPartitionedCall/sequential_2_1/lstm_9_1/TensorArrayV2_1_switch/_85", "op": "Switch", "input": ["StatefulPartitionedCall/sequential_2_1/lstm_9_1/while/merge/_77", "StatefulPartitionedCall/sequential_2_1/lstm_9_1/while/LoopCond/_81"], "attr": {"_has_manual_control_dependencies": {"b": true}, "T": {"type": "DT_VARIANT"}}}, {"name": "StatefulPartitionedCall/sequential_2_1/lstm_9_1/while/exit/_91", "op": "Exit", "input": ["StatefulPartitionedCall/sequential_2_1/lstm_9_1/while/StatefulPartitionedCall/sequential_2_1/lstm_9_1/Max_switch/_83"], "attr": {"_has_manual_control_dependencies": {"b": true}, "T": {"type": "DT_INT32"}}}, {"name": "StatefulPartitionedCall/sequential_2_1/lstm_9_1/while/exit/_90", "op": "Exit", "input": ["StatefulPartitionedCall/sequential_2_1/lstm_9_1/while/StatefulPartitionedCall/sequential_2_1/lstm_9_1/while/loop_counter_switch/_82"], "attr": {"_has_manual_control_dependencies": {"b": true}, "T": {"type": "DT_INT32"}}}, {"name": "StatefulPartitionedCall/sequential_2_1/lstm_9_1/while/loop_body_control/_89", "op": "Identity", "input": ["StatefulPartitionedCall/sequential_2_1/lstm_9_1/while/StatefulPartitionedCall/sequential_2_1/lstm_9_1/while/loop_counter_switch/_82:1"], "attr": {"_has_manual_control_dependencies": {"b": true}, "T": {"type": "DT_INT32"}}}, {"name": "StatefulPartitionedCall/sequential_2_1/lstm_9_1/while/exit/_95", "op": "Exit", "input": ["StatefulPartitionedCall/sequential_2_1/lstm_9_1/while/StatefulPartitionedCall/sequential_2_1/lstm_9_1/zeros_1_switch/_87"], "attr": {"_has_manual_control_dependencies": {"b": true}, "T": {"type": "DT_FLOAT"}}}, {"name": "StatefulPartitionedCall/sequential_2_1/lstm_9_1/while/exit/_96", "op": "Exit", "input": ["StatefulPartitionedCall/sequential_2_1/lstm_9_1/while/StatefulPartitionedCall/sequential_2_1/lstm_9_1/TensorArrayUnstack/TensorListFromTensor_switch/_88"], "attr": {"_has_manual_control_dependencies": {"b": true}, "T": {"type": "DT_VARIANT"}}}, {"name": "StatefulPartitionedCall/sequential_2_1/lstm_9_1/while/exit/_92", "op": "Exit", "input": ["StatefulPartitionedCall/sequential_2_1/lstm_9_1/while/StatefulPartitionedCall/sequential_2_1/lstm_9_1/time_switch/_84"], "attr": {"_has_manual_control_dependencies": {"b": true}, "T": {"type": "DT_INT32"}}}, {"name": "StatefulPartitionedCall/sequential_2_1/lstm_9_1/while/exit/_94", "op": "Exit", "input": ["StatefulPartitionedCall/sequential_2_1/lstm_9_1/while/StatefulPartitionedCall/sequential_2_1/lstm_9_1/zeros_switch/_86"], "attr": {"_has_manual_control_dependencies": {"b": true}, "T": {"type": "DT_FLOAT"}}}, {"name": "StatefulPartitionedCall/sequential_2_1/lstm_9_1/while/exit/_93", "op": "Exit", "input": ["StatefulPartitionedCall/sequential_2_1/lstm_9_1/while/StatefulPartitionedCall/sequential_2_1/lstm_9_1/TensorArrayV2_1_switch/_85"], "attr": {"_has_manual_control_dependencies": {"b": true}, "T": {"type": "DT_VARIANT"}}}, {"name": "Func/StatefulPartitionedCall/sequential_2_1/lstm_9_1/while/body/_62/input_control_node/_239", "op": "NoOp", "input": ["^StatefulPartitionedCall/sequential_2_1/lstm_9_1/while/StatefulPartitionedCall/sequential_2_1/lstm_9_1/Max_switch/_83", "^StatefulPartitionedCall/sequential_2_1/lstm_9_1/while/StatefulPartitionedCall/sequential_2_1/lstm_9_1/TensorArrayUnstack/TensorListFromTensor_switch/_88", "^StatefulPartitionedCall/sequential_2_1/lstm_9_1/while/StatefulPartitionedCall/sequential_2_1/lstm_9_1/TensorArrayV2_1_switch/_85", "^StatefulPartitionedCall/sequential_2_1/lstm_9_1/while/StatefulPartitionedCall/sequential_2_1/lstm_9_1/time_switch/_84", "^StatefulPartitionedCall/sequential_2_1/lstm_9_1/while/loop_body_control/_89", "^StatefulPartitionedCall/sequential_2_1/lstm_9_1/while/StatefulPartitionedCall/sequential_2_1/lstm_9_1/zeros_1_switch/_87", "^StatefulPartitionedCall/sequential_2_1/lstm_9_1/while/StatefulPartitionedCall/sequential_2_1/lstm_9_1/zeros_switch/_86", "^StatefulPartitionedCall/sequential_2_1/lstm_9_1/while/enter/_70", "^StatefulPartitionedCall/sequential_2_1/lstm_9_1/while/enter/_71", "^StatefulPartitionedCall/sequential_2_1/lstm_9_1/while/enter/_72"], "attr": {"_has_manual_control_dependencies": {"b": true}}}, {"name": "StatefulPartitionedCall/sequential_2_1/lstm_9_1/TensorArrayV2Stack/TensorListStack", "op": "TensorListStack", "input": ["StatefulPartitionedCall/sequential_2_1/lstm_9_1/while/exit/_93", "StatefulPartitionedCall/sequential_2_1/lstm_9_1/TensorArrayV2Stack/TensorListStack/element_shape"], "attr": {"num_elements": {"i": "100"}, "element_dtype": {"type": "DT_FLOAT"}}}, {"name": "StatefulPartitionedCall/sequential_2_1/lstm_9_1/while/body/_62/sequential_2_1/lstm_9_1/while/add_1/y", "op": "Const", "input": ["^Func/StatefulPartitionedCall/sequential_2_1/lstm_9_1/while/body/_62/input_control_node/_239"], "attr": {"value": {"tensor": {"dtype": "DT_INT32", "tensorShape": {}}}, "dtype": {"type": "DT_INT32"}}}, {"name": "StatefulPartitionedCall/sequential_2_1/lstm_9_1/while/body/_62/sequential_2_1/lstm_9_1/while/lstm_cell_1/split/split_dim", "op": "Const", "input": ["^Func/StatefulPartitionedCall/sequential_2_1/lstm_9_1/while/body/_62/input_control_node/_239"], "attr": {"value": {"tensor": {"dtype": "DT_INT32", "tensorShape": {}}}, "dtype": {"type": "DT_INT32"}}}, {"name": "StatefulPartitionedCall/sequential_2_1/lstm_9_1/while/body/_62/sequential_2_1/lstm_9_1/while/add/y", "op": "Const", "input": ["^Func/StatefulPartitionedCall/sequential_2_1/lstm_9_1/while/body/_62/input_control_node/_239"], "attr": {"value": {"tensor": {"dtype": "DT_INT32", "tensorShape": {}}}, "dtype": {"type": "DT_INT32"}}}, {"name": "Func/StatefulPartitionedCall/sequential_2_1/lstm_9_1/while/body/_62/input/_242", "op": "Identity", "input": ["StatefulPartitionedCall/sequential_2_1/lstm_9_1/while/StatefulPartitionedCall/sequential_2_1/lstm_9_1/time_switch/_84:1", "^Func/StatefulPartitionedCall/sequential_2_1/lstm_9_1/while/body/_62/input_control_node/_239"], "attr": {"T": {"type": "DT_INT32"}}}, {"name": "StatefulPartitionedCall/sequential_2_1/lstm_9_1/while/body/_62/sequential_2_1/lstm_9_1/while/TensorArrayV2Read/TensorListGetItem/element_shape", "op": "Const", "input": ["^Func/StatefulPartitionedCall/sequential_2_1/lstm_9_1/while/body/_62/input_control_node/_239"], "attr": {"value": {"tensor": {"dtype": "DT_INT32", "tensorShape": {"dim": [{"size": "2"}]}}}, "dtype": {"type": "DT_INT32"}}}, {"name": "StatefulPartitionedCall/sequential_2_1/lstm_9_1/while/body/_62/sequential_2_1/lstm_9_1/while/lstm_cell_1/Cast/ReadVariableOp", "op": "Const", "input": ["^StatefulPartitionedCall/sequential_2_1/lstm_9_1/while/enter/_70", "^Func/StatefulPartitionedCall/sequential_2_1/lstm_9_1/while/body/_62/input_control_node/_239"], "attr": {"value": {"tensor": {"dtype": "DT_FLOAT", "tensorShape": {"dim": [{"size": "150"}, {"size": "600"}]}}}, "dtype": {"type": "DT_FLOAT"}}}, {"name": "StatefulPartitionedCall/sequential_2_1/lstm_9_1/while/body/_62/sequential_2_1/lstm_9_1/while/lstm_cell_1/Cast_1/ReadVariableOp", "op": "Const", "input": ["^StatefulPartitionedCall/sequential_2_1/lstm_9_1/while/enter/_71", "^Func/StatefulPartitionedCall/sequential_2_1/lstm_9_1/while/body/_62/input_control_node/_239"], "attr": {"value": {"tensor": {"dtype": "DT_FLOAT", "tensorShape": {"dim": [{"size": "150"}, {"size": "600"}]}}}, "dtype": {"type": "DT_FLOAT"}}}, {"name": "StatefulPartitionedCall/sequential_2_1/lstm_9_1/while/body/_62/sequential_2_1/lstm_9_1/while/lstm_cell_1/add_1/ReadVariableOp", "op": "Const", "input": ["^StatefulPartitionedCall/sequential_2_1/lstm_9_1/while/enter/_72", "^Func/StatefulPartitionedCall/sequential_2_1/lstm_9_1/while/body/_62/input_control_node/_239"], "attr": {"value": {"tensor": {"dtype": "DT_FLOAT", "tensorShape": {"dim": [{"size": "600"}]}}}, "dtype": {"type": "DT_FLOAT"}}}, {"name": "StatefulPartitionedCall/sequential_2_1/lstm_10_1/TensorArrayUnstack/TensorListFromTensor", "op": "TensorListFromTensor", "input": ["StatefulPartitionedCall/sequential_2_1/lstm_9_1/TensorArrayV2Stack/TensorListStack", "StatefulPartitionedCall/sequential_2_1/lstm_10_1/TensorArrayUnstack/TensorListFromTensor/element_shape"], "attr": {"shape_type": {"type": "DT_INT32"}, "_has_manual_control_dependencies": {"b": true}, "element_dtype": {"type": "DT_FLOAT"}}, "experimentalType": {"typeId": "TFT_PRODUCT", "args": [{"typeId": "TFT_ARRAY", "args": [{"typeId": "TFT_TENSOR", "args": [{"typeId": "TFT_FLOAT"}]}]}]}}, {"name": "StatefulPartitionedCall/sequential_2_1/lstm_9_1/transpose_1", "op": "Transpose", "input": ["StatefulPartitionedCall/sequential_2_1/lstm_9_1/TensorArrayV2Stack/TensorListStack", "StatefulPartitionedCall/sequential_2_1/lstm_9_1/transpose_1/perm"], "attr": {"Tperm": {"type": "DT_INT32"}, "T": {"type": "DT_FLOAT"}}}, {"name": "StatefulPartitionedCall/sequential_2_1/lstm_9_1/while/body/_62/sequential_2_1/lstm_9_1/while/add_1", "op": "AddV2", "input": ["StatefulPartitionedCall/sequential_2_1/lstm_9_1/while/StatefulPartitionedCall/sequential_2_1/lstm_9_1/while/loop_counter_switch/_82:1", "StatefulPartitionedCall/sequential_2_1/lstm_9_1/while/body/_62/sequential_2_1/lstm_9_1/while/add_1/y"], "attr": {"T": {"type": "DT_INT32"}}}, {"name": "StatefulPartitionedCall/sequential_2_1/lstm_9_1/while/body/_62/sequential_2_1/lstm_9_1/while/add", "op": "AddV2", "input": ["Func/StatefulPartitionedCall/sequential_2_1/lstm_9_1/while/body/_62/input/_242", "StatefulPartitionedCall/sequential_2_1/lstm_9_1/while/body/_62/sequential_2_1/lstm_9_1/while/add/y"], "attr": {"T": {"type": "DT_INT32"}}}, {"name": "StatefulPartitionedCall/sequential_2_1/lstm_9_1/while/body/_62/sequential_2_1/lstm_9_1/while/TensorArrayV2Read/TensorListGetItem", "op": "TensorListGetItem", "input": ["StatefulPartitionedCall/sequential_2_1/lstm_9_1/while/StatefulPartitionedCall/sequential_2_1/lstm_9_1/TensorArrayUnstack/TensorListFromTensor_switch/_88:1", "Func/StatefulPartitionedCall/sequential_2_1/lstm_9_1/while/body/_62/input/_242", "StatefulPartitionedCall/sequential_2_1/lstm_9_1/while/body/_62/sequential_2_1/lstm_9_1/while/TensorArrayV2Read/TensorListGetItem/element_shape"], "attr": {"element_dtype": {"type": "DT_FLOAT"}}}, {"name": "StatefulPartitionedCall/sequential_2_1/lstm_9_1/while/body/_62/sequential_2_1/lstm_9_1/while/lstm_cell_1/MatMul_1", "op": "MatMul", "input": ["StatefulPartitionedCall/sequential_2_1/lstm_9_1/while/StatefulPartitionedCall/sequential_2_1/lstm_9_1/zeros_switch/_86:1", "StatefulPartitionedCall/sequential_2_1/lstm_9_1/while/body/_62/sequential_2_1/lstm_9_1/while/lstm_cell_1/Cast_1/ReadVariableOp"], "device": "/device:CPU:0", "attr": {"grad_a": {"b": false}, "transpose_a": {"b": false}, "T": {"type": "DT_FLOAT"}, "grad_b": {"b": false}, "transpose_b": {"b": false}}}, {"name": "Func/StatefulPartitionedCall/sequential_2_1/lstm_9_1/while/body/_62/output_control_node/_260", "op": "NoOp", "input": ["^StatefulPartitionedCall/sequential_2_1/lstm_9_1/while/body/_62/sequential_2_1/lstm_9_1/while/lstm_cell_1/Cast/ReadVariableOp", "^StatefulPartitionedCall/sequential_2_1/lstm_9_1/while/body/_62/sequential_2_1/lstm_9_1/while/lstm_cell_1/Cast_1/ReadVariableOp", "^StatefulPartitionedCall/sequential_2_1/lstm_9_1/while/body/_62/sequential_2_1/lstm_9_1/while/lstm_cell_1/add_1/ReadVariableOp"], "attr": {"_has_manual_control_dependencies": {"b": true}}}, {"name": "StatefulPartitionedCall/sequential_2_1/lstm_9_1/while/body/_62/sequential_2_1/lstm_9_1/while/NoOp", "op": "NoOp", "input": ["^StatefulPartitionedCall/sequential_2_1/lstm_9_1/while/body/_62/sequential_2_1/lstm_9_1/while/lstm_cell_1/Cast/ReadVariableOp", "^StatefulPartitionedCall/sequential_2_1/lstm_9_1/while/body/_62/sequential_2_1/lstm_9_1/while/lstm_cell_1/Cast_1/ReadVariableOp", "^StatefulPartitionedCall/sequential_2_1/lstm_9_1/while/body/_62/sequential_2_1/lstm_9_1/while/lstm_cell_1/add_1/ReadVariableOp"], "attr": {"_has_manual_control_dependencies": {"b": true}}}, {"name": "StatefulPartitionedCall/sequential_2_1/lstm_10_1/Shape", "op": "Shape", "input": ["StatefulPartitionedCall/sequential_2_1/lstm_9_1/transpose_1"], "attr": {"T": {"type": "DT_FLOAT"}, "out_type": {"type": "DT_INT32"}}, "experimentalType": {"typeId": "TFT_PRODUCT", "args": [{"typeId": "TFT_SHAPE_TENSOR", "args": [{"typeId": "TFT_INT32"}]}]}}, {"name": "StatefulPartitionedCall/sequential_2_1/lstm_9_1/while/body/_62/sequential_2_1/lstm_9_1/while/lstm_cell_1/add", "op": "AddV2", "input": ["StatefulPartitionedCall/sequential_2_1/lstm_9_1/while/body/_62/sequential_2_1/lstm_9_1/while/lstm_cell_1/add_1/ReadVariableOp", "StatefulPartitionedCall/sequential_2_1/lstm_9_1/while/body/_62/sequential_2_1/lstm_9_1/while/lstm_cell_1/MatMul_1"], "attr": {"T": {"type": "DT_FLOAT"}}}, {"name": "StatefulPartitionedCall/sequential_2_1/lstm_9_1/while/next_iteration/_104", "op": "NextIteration", "input": ["StatefulPartitionedCall/sequential_2_1/lstm_9_1/while/StatefulPartitionedCall/sequential_2_1/lstm_9_1/TensorArrayUnstack/TensorListFromTensor_switch/_88:1", "^Func/StatefulPartitionedCall/sequential_2_1/lstm_9_1/while/body/_62/output_control_node/_260", "^Func/StatefulPartitionedCall/sequential_2_1/lstm_9_1/while/body/_62/input_control_node/_239"], "attr": {"T": {"type": "DT_VARIANT"}}}, {"name": "StatefulPartitionedCall/sequential_2_1/lstm_9_1/while/next_iteration/_99", "op": "NextIteration", "input": ["StatefulPartitionedCall/sequential_2_1/lstm_9_1/while/StatefulPartitionedCall/sequential_2_1/lstm_9_1/Max_switch/_83:1", "^Func/StatefulPartitionedCall/sequential_2_1/lstm_9_1/while/body/_62/output_control_node/_260", "^StatefulPartitionedCall/sequential_2_1/lstm_9_1/while/body/_62/sequential_2_1/lstm_9_1/while/NoOp", "^Func/StatefulPartitionedCall/sequential_2_1/lstm_9_1/while/body/_62/input_control_node/_239"], "attr": {"T": {"type": "DT_INT32"}}}, {"name": "StatefulPartitionedCall/sequential_2_1/lstm_9_1/while/next_iteration/_98", "op": "NextIteration", "input": ["StatefulPartitionedCall/sequential_2_1/lstm_9_1/while/body/_62/sequential_2_1/lstm_9_1/while/add_1", "^Func/StatefulPartitionedCall/sequential_2_1/lstm_9_1/while/body/_62/output_control_node/_260", "^StatefulPartitionedCall/sequential_2_1/lstm_9_1/while/body/_62/sequential_2_1/lstm_9_1/while/NoOp"], "attr": {"T": {"type": "DT_INT32"}}}, {"name": "StatefulPartitionedCall/sequential_2_1/lstm_9_1/while/next_iteration/_100", "op": "NextIteration", "input": ["StatefulPartitionedCall/sequential_2_1/lstm_9_1/while/body/_62/sequential_2_1/lstm_9_1/while/add", "^Func/StatefulPartitionedCall/sequential_2_1/lstm_9_1/while/body/_62/output_control_node/_260", "^StatefulPartitionedCall/sequential_2_1/lstm_9_1/while/body/_62/sequential_2_1/lstm_9_1/while/NoOp"], "attr": {"T": {"type": "DT_INT32"}}}, {"name": "StatefulPartitionedCall/sequential_2_1/lstm_10_1/strided_slice", "op": "StridedSlice", "input": ["StatefulPartitionedCall/sequential_2_1/lstm_10_1/Shape", "StatefulPartitionedCall/sequential_2_1/lstm_10_1/strided_slice/stack", "StatefulPartitionedCall/sequential_2_1/lstm_10_1/strided_slice/stack_1", "StatefulPartitionedCall/sequential_2_1/lstm_10_1/strided_slice/stack_2"], "attr": {"shrink_axis_mask": {"i": "1"}, "Index": {"type": "DT_INT32"}, "new_axis_mask": {"i": "0"}, "begin_mask": {"i": "0"}, "T": {"type": "DT_INT32"}, "end_mask": {"i": "0"}, "ellipsis_mask": {"i": "0"}}}, {"name": "StatefulPartitionedCall/sequential_2_1/lstm_9_1/while/body/_62/sequential_2_1/lstm_9_1/while/lstm_cell_1/add_1", "op": "_FusedMatMul", "input": ["StatefulPartitionedCall/sequential_2_1/lstm_9_1/while/body/_62/sequential_2_1/lstm_9_1/while/TensorArrayV2Read/TensorListGetItem", "StatefulPartitionedCall/sequential_2_1/lstm_9_1/while/body/_62/sequential_2_1/lstm_9_1/while/lstm_cell_1/Cast/ReadVariableOp", "StatefulPartitionedCall/sequential_2_1/lstm_9_1/while/body/_62/sequential_2_1/lstm_9_1/while/lstm_cell_1/add"], "device": "/device:CPU:0", "attr": {"transpose_a": {"b": false}, "transpose_b": {"b": false}, "fused_ops": {"list": {"s": ["Qmlhc0FkZA=="]}}, "num_args": {"i": "1"}, "leakyrelu_alpha": {"f": 0.2}, "epsilon": {"f": 0.0}, "T": {"type": "DT_FLOAT"}}}, {"name": "StatefulPartitionedCall/sequential_2_1/lstm_10_1/zeros/packed", "op": "Pack", "input": ["StatefulPartitionedCall/sequential_2_1/lstm_10_1/strided_slice", "StatefulPartitionedCall/sequential_2_1/lstm_10_1/zeros/packed/1"], "attr": {"N": {"i": "2"}, "axis": {"i": "0"}, "T": {"type": "DT_INT32"}}}, {"name": "StatefulPartitionedCall/sequential_2_1/lstm_10_1/zeros_1/packed", "op": "Pack", "input": ["StatefulPartitionedCall/sequential_2_1/lstm_10_1/strided_slice", "StatefulPartitionedCall/sequential_2_1/lstm_10_1/zeros_1/packed/1"], "attr": {"N": {"i": "2"}, "axis": {"i": "0"}, "T": {"type": "DT_INT32"}}}, {"name": "StatefulPartitionedCall/sequential_2_1/lstm_9_1/while/body/_62/sequential_2_1/lstm_9_1/while/lstm_cell_1/split", "op": "Split", "input": ["StatefulPartitionedCall/sequential_2_1/lstm_9_1/while/body/_62/sequential_2_1/lstm_9_1/while/lstm_cell_1/split/split_dim", "StatefulPartitionedCall/sequential_2_1/lstm_9_1/while/body/_62/sequential_2_1/lstm_9_1/while/lstm_cell_1/add_1"], "attr": {"num_split": {"i": "4"}, "T": {"type": "DT_FLOAT"}}}, {"name": "StatefulPartitionedCall/sequential_2_1/lstm_10_1/zeros", "op": "Fill", "input": ["StatefulPartitionedCall/sequential_2_1/lstm_10_1/zeros/packed", "StatefulPartitionedCall/sequential_2_1/lstm_10_1/zeros/Const"], "attr": {"_has_manual_control_dependencies": {"b": true}, "T": {"type": "DT_FLOAT"}, "index_type": {"type": "DT_INT32"}}}, {"name": "StatefulPartitionedCall/sequential_2_1/lstm_10_1/zeros_1", "op": "Fill", "input": ["StatefulPartitionedCall/sequential_2_1/lstm_10_1/zeros_1/packed", "StatefulPartitionedCall/sequential_2_1/lstm_10_1/zeros_1/Const"], "attr": {"_has_manual_control_dependencies": {"b": true}, "T": {"type": "DT_FLOAT"}, "index_type": {"type": "DT_INT32"}}}, {"name": "StatefulPartitionedCall/sequential_2_1/lstm_9_1/while/body/_62/sequential_2_1/lstm_9_1/while/lstm_cell_1/Sigmoid", "op": "Sigmoid", "input": ["StatefulPartitionedCall/sequential_2_1/lstm_9_1/while/body/_62/sequential_2_1/lstm_9_1/while/lstm_cell_1/split"], "attr": {"T": {"type": "DT_FLOAT"}}}, {"name": "StatefulPartitionedCall/sequential_2_1/lstm_9_1/while/body/_62/sequential_2_1/lstm_9_1/while/lstm_cell_1/Sigmoid_1", "op": "Sigmoid", "input": ["StatefulPartitionedCall/sequential_2_1/lstm_9_1/while/body/_62/sequential_2_1/lstm_9_1/while/lstm_cell_1/split:1"], "attr": {"T": {"type": "DT_FLOAT"}}}, {"name": "StatefulPartitionedCall/sequential_2_1/lstm_9_1/while/body/_62/sequential_2_1/lstm_9_1/while/lstm_cell_1/Tanh", "op": "Tanh", "input": ["StatefulPartitionedCall/sequential_2_1/lstm_9_1/while/body/_62/sequential_2_1/lstm_9_1/while/lstm_cell_1/split:2"], "attr": {"T": {"type": "DT_FLOAT"}}}, {"name": "StatefulPartitionedCall/sequential_2_1/lstm_9_1/while/body/_62/sequential_2_1/lstm_9_1/while/lstm_cell_1/Sigmoid_2", "op": "Sigmoid", "input": ["StatefulPartitionedCall/sequential_2_1/lstm_9_1/while/body/_62/sequential_2_1/lstm_9_1/while/lstm_cell_1/split:3"], "attr": {"T": {"type": "DT_FLOAT"}}}, {"name": "StatefulPartitionedCall/sequential_2_1/lstm_10_1/while/LoopControlInputs/_117", "op": "NoOp", "input": ["^StatefulPartitionedCall/sequential_2_1/lstm_10_1/TensorArrayUnstack/TensorListFromTensor", "^StatefulPartitionedCall/sequential_2_1/lstm_10_1/TensorArrayV2_1", "^StatefulPartitionedCall/sequential_2_1/lstm_10_1/zeros", "^StatefulPartitionedCall/sequential_2_1/lstm_10_1/zeros_1"], "attr": {"_has_manual_control_dependencies": {"b": true}}}, {"name": "StatefulPartitionedCall/sequential_2_1/lstm_9_1/while/body/_62/sequential_2_1/lstm_9_1/while/lstm_cell_1/mul", "op": "Mul", "input": ["StatefulPartitionedCall/sequential_2_1/lstm_9_1/while/body/_62/sequential_2_1/lstm_9_1/while/lstm_cell_1/Sigmoid_1", "StatefulPartitionedCall/sequential_2_1/lstm_9_1/while/StatefulPartitionedCall/sequential_2_1/lstm_9_1/zeros_1_switch/_87:1"], "attr": {"T": {"type": "DT_FLOAT"}}}, {"name": "StatefulPartitionedCall/sequential_2_1/lstm_9_1/while/body/_62/sequential_2_1/lstm_9_1/while/lstm_cell_1/mul_1", "op": "Mul", "input": ["StatefulPartitionedCall/sequential_2_1/lstm_9_1/while/body/_62/sequential_2_1/lstm_9_1/while/lstm_cell_1/Sigmoid", "StatefulPartitionedCall/sequential_2_1/lstm_9_1/while/body/_62/sequential_2_1/lstm_9_1/while/lstm_cell_1/Tanh"], "attr": {"T": {"type": "DT_FLOAT"}}}, {"name": "StatefulPartitionedCall/sequential_2_1/lstm_10_1/while/enter/_110", "op": "Enter", "input": ["StatefulPartitionedCall/sequential_2_1/lstm_10_1/TensorArrayV2_1", "^StatefulPartitionedCall/sequential_2_1/lstm_10_1/while/LoopControlInputs/_117"], "attr": {"is_constant": {"b": false}, "frame_name": {"s": "U3RhdGVmdWxQYXJ0aXRpb25lZENhbGwvc2VxdWVudGlhbF8yXzEvbHN0bV8xMF8xL3doaWxl"}, "T": {"type": "DT_VARIANT"}, "parallel_iterations": {"i": "32"}}}, {"name": "StatefulPartitionedCall/sequential_2_1/lstm_10_1/while/enter/_113", "op": "Enter", "input": ["StatefulPartitionedCall/sequential_2_1/lstm_10_1/TensorArrayUnstack/TensorListFromTensor", "^StatefulPartitionedCall/sequential_2_1/lstm_10_1/while/LoopControlInputs/_117"], "attr": {"is_constant": {"b": false}, "frame_name": {"s": "U3RhdGVmdWxQYXJ0aXRpb25lZENhbGwvc2VxdWVudGlhbF8yXzEvbHN0bV8xMF8xL3doaWxl"}, "T": {"type": "DT_VARIANT"}, "parallel_iterations": {"i": "32"}}}, {"name": "StatefulPartitionedCall/sequential_2_1/lstm_10_1/while/enter/_108", "op": "Enter", "input": ["StatefulPartitionedCall/sequential_2_1/lstm_10_1/Max", "^StatefulPartitionedCall/sequential_2_1/lstm_10_1/while/LoopControlInputs/_117"], "attr": {"is_constant": {"b": false}, "frame_name": {"s": "U3RhdGVmdWxQYXJ0aXRpb25lZENhbGwvc2VxdWVudGlhbF8yXzEvbHN0bV8xMF8xL3doaWxl"}, "T": {"type": "DT_INT32"}, "parallel_iterations": {"i": "32"}}}, {"name": "StatefulPartitionedCall/sequential_2_1/lstm_10_1/while/enter/_107", "op": "Enter", "input": ["StatefulPartitionedCall/sequential_2_1/lstm_10_1/while/loop_counter", "^StatefulPartitionedCall/sequential_2_1/lstm_10_1/while/LoopControlInputs/_117"], "attr": {"is_constant": {"b": false}, "frame_name": {"s": "U3RhdGVmdWxQYXJ0aXRpb25lZENhbGwvc2VxdWVudGlhbF8yXzEvbHN0bV8xMF8xL3doaWxl"}, "T": {"type": "DT_INT32"}, "parallel_iterations": {"i": "32"}}}, {"name": "StatefulPartitionedCall/sequential_2_1/lstm_10_1/while/enter/_111", "op": "Enter", "input": ["StatefulPartitionedCall/sequential_2_1/lstm_10_1/zeros", "^StatefulPartitionedCall/sequential_2_1/lstm_10_1/while/LoopControlInputs/_117"], "attr": {"is_constant": {"b": false}, "frame_name": {"s": "U3RhdGVmdWxQYXJ0aXRpb25lZENhbGwvc2VxdWVudGlhbF8yXzEvbHN0bV8xMF8xL3doaWxl"}, "T": {"type": "DT_FLOAT"}, "parallel_iterations": {"i": "32"}}}, {"name": "StatefulPartitionedCall/sequential_2_1/lstm_10_1/while/enter/_112", "op": "Enter", "input": ["StatefulPartitionedCall/sequential_2_1/lstm_10_1/zeros_1", "^StatefulPartitionedCall/sequential_2_1/lstm_10_1/while/LoopControlInputs/_117"], "attr": {"is_constant": {"b": false}, "frame_name": {"s": "U3RhdGVmdWxQYXJ0aXRpb25lZENhbGwvc2VxdWVudGlhbF8yXzEvbHN0bV8xMF8xL3doaWxl"}, "T": {"type": "DT_FLOAT"}, "parallel_iterations": {"i": "32"}}}, {"name": "StatefulPartitionedCall/sequential_2_1/lstm_10_1/while/enter/_109", "op": "Enter", "input": ["StatefulPartitionedCall/sequential_2_1/lstm_10_1/time", "^StatefulPartitionedCall/sequential_2_1/lstm_10_1/while/LoopControlInputs/_117"], "attr": {"is_constant": {"b": false}, "frame_name": {"s": "U3RhdGVmdWxQYXJ0aXRpb25lZENhbGwvc2VxdWVudGlhbF8yXzEvbHN0bV8xMF8xL3doaWxl"}, "T": {"type": "DT_INT32"}, "parallel_iterations": {"i": "32"}}}, {"name": "StatefulPartitionedCall/sequential_2_1/lstm_10_1/while/enter/_114", "op": "Enter", "input": ["Func/StatefulPartitionedCall/input/_7", "^StatefulPartitionedCall/sequential_2_1/lstm_10_1/while/LoopControlInputs/_117"], "attr": {"is_constant": {"b": true}, "_has_manual_control_dependencies": {"b": true}, "T": {"type": "DT_FLOAT"}, "frame_name": {"s": "U3RhdGVmdWxQYXJ0aXRpb25lZENhbGwvc2VxdWVudGlhbF8yXzEvbHN0bV8xMF8xL3doaWxl"}, "parallel_iterations": {"i": "32"}}}, {"name": "StatefulPartitionedCall/sequential_2_1/lstm_10_1/while/enter/_115", "op": "Enter", "input": ["Func/StatefulPartitionedCall/input/_8", "^StatefulPartitionedCall/sequential_2_1/lstm_10_1/while/LoopControlInputs/_117"], "attr": {"is_constant": {"b": true}, "_has_manual_control_dependencies": {"b": true}, "T": {"type": "DT_FLOAT"}, "frame_name": {"s": "U3RhdGVmdWxQYXJ0aXRpb25lZENhbGwvc2VxdWVudGlhbF8yXzEvbHN0bV8xMF8xL3doaWxl"}, "parallel_iterations": {"i": "32"}}}, {"name": "StatefulPartitionedCall/sequential_2_1/lstm_10_1/while/enter/_116", "op": "Enter", "input": ["Func/StatefulPartitionedCall/input/_9", "^StatefulPartitionedCall/sequential_2_1/lstm_10_1/while/LoopControlInputs/_117"], "attr": {"is_constant": {"b": true}, "frame_name": {"s": "U3RhdGVmdWxQYXJ0aXRpb25lZENhbGwvc2VxdWVudGlhbF8yXzEvbHN0bV8xMF8xL3doaWxl"}, "T": {"type": "DT_FLOAT"}, "_has_manual_control_dependencies": {"b": true}, "parallel_iterations": {"i": "32"}}}, {"name": "StatefulPartitionedCall/sequential_2_1/lstm_9_1/while/body/_62/sequential_2_1/lstm_9_1/while/lstm_cell_1/add_2", "op": "AddV2", "input": ["StatefulPartitionedCall/sequential_2_1/lstm_9_1/while/body/_62/sequential_2_1/lstm_9_1/while/lstm_cell_1/mul", "StatefulPartitionedCall/sequential_2_1/lstm_9_1/while/body/_62/sequential_2_1/lstm_9_1/while/lstm_cell_1/mul_1"], "attr": {"T": {"type": "DT_FLOAT"}}}, {"name": "StatefulPartitionedCall/sequential_2_1/lstm_10_1/while/merge/_121", "op": "Merge", "input": ["StatefulPartitionedCall/sequential_2_1/lstm_10_1/while/enter/_110", "StatefulPartitionedCall/sequential_2_1/lstm_10_1/while/next_iteration/_145"], "attr": {"N": {"i": "2"}, "_has_manual_control_dependencies": {"b": true}, "T": {"type": "DT_VARIANT"}}}, {"name": "StatefulPartitionedCall/sequential_2_1/lstm_10_1/while/merge/_124", "op": "Merge", "input": ["StatefulPartitionedCall/sequential_2_1/lstm_10_1/while/enter/_113", "StatefulPartitionedCall/sequential_2_1/lstm_10_1/while/next_iteration/_148"], "attr": {"N": {"i": "2"}, "_has_manual_control_dependencies": {"b": true}, "T": {"type": "DT_VARIANT"}}}, {"name": "StatefulPartitionedCall/sequential_2_1/lstm_10_1/while/merge/_119", "op": "Merge", "input": ["StatefulPartitionedCall/sequential_2_1/lstm_10_1/while/enter/_108", "StatefulPartitionedCall/sequential_2_1/lstm_10_1/while/next_iteration/_143"], "attr": {"N": {"i": "2"}, "_has_manual_control_dependencies": {"b": true}, "T": {"type": "DT_INT32"}}}, {"name": "StatefulPartitionedCall/sequential_2_1/lstm_10_1/while/merge/_118", "op": "Merge", "input": ["StatefulPartitionedCall/sequential_2_1/lstm_10_1/while/enter/_107", "StatefulPartitionedCall/sequential_2_1/lstm_10_1/while/next_iteration/_142"], "attr": {"N": {"i": "2"}, "_has_manual_control_dependencies": {"b": true}, "T": {"type": "DT_INT32"}}}, {"name": "StatefulPartitionedCall/sequential_2_1/lstm_10_1/while/merge/_122", "op": "Merge", "input": ["StatefulPartitionedCall/sequential_2_1/lstm_10_1/while/enter/_111", "StatefulPartitionedCall/sequential_2_1/lstm_10_1/while/next_iteration/_146"], "attr": {"N": {"i": "2"}, "_has_manual_control_dependencies": {"b": true}, "T": {"type": "DT_FLOAT"}}}, {"name": "StatefulPartitionedCall/sequential_2_1/lstm_10_1/while/merge/_123", "op": "Merge", "input": ["StatefulPartitionedCall/sequential_2_1/lstm_10_1/while/enter/_112", "StatefulPartitionedCall/sequential_2_1/lstm_10_1/while/next_iteration/_147"], "attr": {"N": {"i": "2"}, "_has_manual_control_dependencies": {"b": true}, "T": {"type": "DT_FLOAT"}}}, {"name": "StatefulPartitionedCall/sequential_2_1/lstm_10_1/while/merge/_120", "op": "Merge", "input": ["StatefulPartitionedCall/sequential_2_1/lstm_10_1/while/enter/_109", "StatefulPartitionedCall/sequential_2_1/lstm_10_1/while/next_iteration/_144"], "attr": {"N": {"i": "2"}, "_has_manual_control_dependencies": {"b": true}, "T": {"type": "DT_INT32"}}}, {"name": "StatefulPartitionedCall/sequential_2_1/lstm_9_1/while/body/_62/sequential_2_1/lstm_9_1/while/lstm_cell_1/Tanh_1", "op": "Tanh", "input": ["StatefulPartitionedCall/sequential_2_1/lstm_9_1/while/body/_62/sequential_2_1/lstm_9_1/while/lstm_cell_1/add_2"], "attr": {"T": {"type": "DT_FLOAT"}}}, {"name": "StatefulPartitionedCall/sequential_2_1/lstm_9_1/while/next_iteration/_103", "op": "NextIteration", "input": ["StatefulPartitionedCall/sequential_2_1/lstm_9_1/while/body/_62/sequential_2_1/lstm_9_1/while/lstm_cell_1/add_2", "^Func/StatefulPartitionedCall/sequential_2_1/lstm_9_1/while/body/_62/output_control_node/_260", "^StatefulPartitionedCall/sequential_2_1/lstm_9_1/while/body/_62/sequential_2_1/lstm_9_1/while/NoOp"], "attr": {"T": {"type": "DT_FLOAT"}}}, {"name": "Func/StatefulPartitionedCall/sequential_2_1/lstm_10_1/while/cond/_105/input_control_node/_261", "op": "NoOp", "input": ["^StatefulPartitionedCall/sequential_2_1/lstm_10_1/while/enter/_114", "^StatefulPartitionedCall/sequential_2_1/lstm_10_1/while/enter/_115", "^StatefulPartitionedCall/sequential_2_1/lstm_10_1/while/enter/_116", "^StatefulPartitionedCall/sequential_2_1/lstm_10_1/while/merge/_118", "^StatefulPartitionedCall/sequential_2_1/lstm_10_1/while/merge/_119", "^StatefulPartitionedCall/sequential_2_1/lstm_10_1/while/merge/_120", "^StatefulPartitionedCall/sequential_2_1/lstm_10_1/while/merge/_121", "^StatefulPartitionedCall/sequential_2_1/lstm_10_1/while/merge/_122", "^StatefulPartitionedCall/sequential_2_1/lstm_10_1/while/merge/_123", "^StatefulPartitionedCall/sequential_2_1/lstm_10_1/while/merge/_124"], "attr": {"_has_manual_control_dependencies": {"b": true}}}, {"name": "StatefulPartitionedCall/sequential_2_1/lstm_9_1/while/body/_62/sequential_2_1/lstm_9_1/while/lstm_cell_1/mul_2", "op": "Mul", "input": ["StatefulPartitionedCall/sequential_2_1/lstm_9_1/while/body/_62/sequential_2_1/lstm_9_1/while/lstm_cell_1/Sigmoid_2", "StatefulPartitionedCall/sequential_2_1/lstm_9_1/while/body/_62/sequential_2_1/lstm_9_1/while/lstm_cell_1/Tanh_1"], "attr": {"T": {"type": "DT_FLOAT"}}}, {"name": "StatefulPartitionedCall/sequential_2_1/lstm_10_1/while/cond/_105/sequential_2_1/lstm_10_1/while/Less_1", "op": "Less", "input": ["StatefulPartitionedCall/sequential_2_1/lstm_10_1/while/merge/_118", "StatefulPartitionedCall/sequential_2_1/lstm_10_1/while/merge/_119", "^Func/StatefulPartitionedCall/sequential_2_1/lstm_10_1/while/cond/_105/input_control_node/_261"], "attr": {"T": {"type": "DT_INT32"}}}, {"name": "StatefulPartitionedCall/sequential_2_1/lstm_10_1/while/cond/_105/sequential_2_1/lstm_10_1/while/Less/y", "op": "Const", "input": ["^Func/StatefulPartitionedCall/sequential_2_1/lstm_10_1/while/cond/_105/input_control_node/_261"], "attr": {"value": {"tensor": {"dtype": "DT_INT32", "tensorShape": {}}}, "dtype": {"type": "DT_INT32"}}}, {"name": "StatefulPartitionedCall/sequential_2_1/lstm_9_1/while/body/_62/sequential_2_1/lstm_9_1/while/TensorArrayV2Write/TensorListSetItem", "op": "TensorListSetItem", "input": ["StatefulPartitionedCall/sequential_2_1/lstm_9_1/while/StatefulPartitionedCall/sequential_2_1/lstm_9_1/TensorArrayV2_1_switch/_85:1", "Func/StatefulPartitionedCall/sequential_2_1/lstm_9_1/while/body/_62/input/_242", "StatefulPartitionedCall/sequential_2_1/lstm_9_1/while/body/_62/sequential_2_1/lstm_9_1/while/lstm_cell_1/mul_2"], "attr": {"element_dtype": {"type": "DT_FLOAT"}, "resize_if_index_out_of_bounds": {"b": false}}, "experimentalType": {"typeId": "TFT_PRODUCT", "args": [{"typeId": "TFT_ARRAY", "args": [{"typeId": "TFT_TENSOR", "args": [{"typeId": "TFT_FLOAT"}]}]}]}}, {"name": "StatefulPartitionedCall/sequential_2_1/lstm_9_1/while/next_iteration/_102", "op": "NextIteration", "input": ["StatefulPartitionedCall/sequential_2_1/lstm_9_1/while/body/_62/sequential_2_1/lstm_9_1/while/lstm_cell_1/mul_2", "^Func/StatefulPartitionedCall/sequential_2_1/lstm_9_1/while/body/_62/output_control_node/_260", "^StatefulPartitionedCall/sequential_2_1/lstm_9_1/while/body/_62/sequential_2_1/lstm_9_1/while/NoOp"], "attr": {"T": {"type": "DT_FLOAT"}}}, {"name": "StatefulPartitionedCall/sequential_2_1/lstm_10_1/while/cond/_105/sequential_2_1/lstm_10_1/while/Less", "op": "Less", "input": ["StatefulPartitionedCall/sequential_2_1/lstm_10_1/while/merge/_120", "StatefulPartitionedCall/sequential_2_1/lstm_10_1/while/cond/_105/sequential_2_1/lstm_10_1/while/Less/y"], "attr": {"T": {"type": "DT_INT32"}}}, {"name": "StatefulPartitionedCall/sequential_2_1/lstm_9_1/while/next_iteration/_101", "op": "NextIteration", "input": ["StatefulPartitionedCall/sequential_2_1/lstm_9_1/while/body/_62/sequential_2_1/lstm_9_1/while/TensorArrayV2Write/TensorListSetItem", "^Func/StatefulPartitionedCall/sequential_2_1/lstm_9_1/while/body/_62/output_control_node/_260", "^StatefulPartitionedCall/sequential_2_1/lstm_9_1/while/body/_62/sequential_2_1/lstm_9_1/while/NoOp"], "attr": {"T": {"type": "DT_VARIANT"}}}, {"name": "StatefulPartitionedCall/sequential_2_1/lstm_10_1/while/cond/_105/sequential_2_1/lstm_10_1/while/LogicalAnd", "op": "LogicalAnd", "input": ["StatefulPartitionedCall/sequential_2_1/lstm_10_1/while/cond/_105/sequential_2_1/lstm_10_1/while/Less_1", "StatefulPartitionedCall/sequential_2_1/lstm_10_1/while/cond/_105/sequential_2_1/lstm_10_1/while/Less"]}, {"name": "StatefulPartitionedCall/sequential_2_1/lstm_10_1/while/LoopCond/_125", "op": "LoopCond", "input": ["StatefulPartitionedCall/sequential_2_1/lstm_10_1/while/cond/_105/sequential_2_1/lstm_10_1/while/LogicalAnd"]}, {"name": "StatefulPartitionedCall/sequential_2_1/lstm_10_1/while/StatefulPartitionedCall/sequential_2_1/lstm_10_1/Max_switch/_127", "op": "Switch", "input": ["StatefulPartitionedCall/sequential_2_1/lstm_10_1/while/merge/_119", "StatefulPartitionedCall/sequential_2_1/lstm_10_1/while/LoopCond/_125"], "attr": {"T": {"type": "DT_INT32"}}}, {"name": "StatefulPartitionedCall/sequential_2_1/lstm_10_1/while/StatefulPartitionedCall/sequential_2_1/lstm_10_1/while/loop_counter_switch/_126", "op": "Switch", "input": ["StatefulPartitionedCall/sequential_2_1/lstm_10_1/while/merge/_118", "StatefulPartitionedCall/sequential_2_1/lstm_10_1/while/LoopCond/_125"], "attr": {"T": {"type": "DT_INT32"}}}, {"name": "StatefulPartitionedCall/sequential_2_1/lstm_10_1/while/StatefulPartitionedCall/sequential_2_1/lstm_10_1/zeros_1_switch/_131", "op": "Switch", "input": ["StatefulPartitionedCall/sequential_2_1/lstm_10_1/while/merge/_123", "StatefulPartitionedCall/sequential_2_1/lstm_10_1/while/LoopCond/_125"], "attr": {"T": {"type": "DT_FLOAT"}}}, {"name": "StatefulPartitionedCall/sequential_2_1/lstm_10_1/while/StatefulPartitionedCall/sequential_2_1/lstm_10_1/TensorArrayUnstack/TensorListFromTensor_switch/_132", "op": "Switch", "input": ["StatefulPartitionedCall/sequential_2_1/lstm_10_1/while/merge/_124", "StatefulPartitionedCall/sequential_2_1/lstm_10_1/while/LoopCond/_125"], "attr": {"T": {"type": "DT_VARIANT"}}}, {"name": "StatefulPartitionedCall/sequential_2_1/lstm_10_1/while/StatefulPartitionedCall/sequential_2_1/lstm_10_1/time_switch/_128", "op": "Switch", "input": ["StatefulPartitionedCall/sequential_2_1/lstm_10_1/while/merge/_120", "StatefulPartitionedCall/sequential_2_1/lstm_10_1/while/LoopCond/_125"], "attr": {"T": {"type": "DT_INT32"}}}, {"name": "StatefulPartitionedCall/sequential_2_1/lstm_10_1/while/StatefulPartitionedCall/sequential_2_1/lstm_10_1/zeros_switch/_130", "op": "Switch", "input": ["StatefulPartitionedCall/sequential_2_1/lstm_10_1/while/merge/_122", "StatefulPartitionedCall/sequential_2_1/lstm_10_1/while/LoopCond/_125"], "attr": {"T": {"type": "DT_FLOAT"}}}, {"name": "StatefulPartitionedCall/sequential_2_1/lstm_10_1/while/StatefulPartitionedCall/sequential_2_1/lstm_10_1/TensorArrayV2_1_switch/_129", "op": "Switch", "input": ["StatefulPartitionedCall/sequential_2_1/lstm_10_1/while/merge/_121", "StatefulPartitionedCall/sequential_2_1/lstm_10_1/while/LoopCond/_125"], "attr": {"T": {"type": "DT_VARIANT"}}}, {"name": "StatefulPartitionedCall/sequential_2_1/lstm_10_1/while/exit/_135", "op": "Exit", "input": ["StatefulPartitionedCall/sequential_2_1/lstm_10_1/while/StatefulPartitionedCall/sequential_2_1/lstm_10_1/Max_switch/_127"], "attr": {"_has_manual_control_dependencies": {"b": true}, "T": {"type": "DT_INT32"}}}, {"name": "StatefulPartitionedCall/sequential_2_1/lstm_10_1/while/exit/_134", "op": "Exit", "input": ["StatefulPartitionedCall/sequential_2_1/lstm_10_1/while/StatefulPartitionedCall/sequential_2_1/lstm_10_1/while/loop_counter_switch/_126"], "attr": {"_has_manual_control_dependencies": {"b": true}, "T": {"type": "DT_INT32"}}}, {"name": "StatefulPartitionedCall/sequential_2_1/lstm_10_1/while/loop_body_control/_133", "op": "Identity", "input": ["StatefulPartitionedCall/sequential_2_1/lstm_10_1/while/StatefulPartitionedCall/sequential_2_1/lstm_10_1/while/loop_counter_switch/_126:1"], "attr": {"_has_manual_control_dependencies": {"b": true}, "T": {"type": "DT_INT32"}}}, {"name": "StatefulPartitionedCall/sequential_2_1/lstm_10_1/while/exit/_139", "op": "Exit", "input": ["StatefulPartitionedCall/sequential_2_1/lstm_10_1/while/StatefulPartitionedCall/sequential_2_1/lstm_10_1/zeros_1_switch/_131"], "attr": {"_has_manual_control_dependencies": {"b": true}, "T": {"type": "DT_FLOAT"}}}, {"name": "StatefulPartitionedCall/sequential_2_1/lstm_10_1/while/exit/_140", "op": "Exit", "input": ["StatefulPartitionedCall/sequential_2_1/lstm_10_1/while/StatefulPartitionedCall/sequential_2_1/lstm_10_1/TensorArrayUnstack/TensorListFromTensor_switch/_132"], "attr": {"_has_manual_control_dependencies": {"b": true}, "T": {"type": "DT_VARIANT"}}}, {"name": "StatefulPartitionedCall/sequential_2_1/lstm_10_1/while/exit/_136", "op": "Exit", "input": ["StatefulPartitionedCall/sequential_2_1/lstm_10_1/while/StatefulPartitionedCall/sequential_2_1/lstm_10_1/time_switch/_128"], "attr": {"_has_manual_control_dependencies": {"b": true}, "T": {"type": "DT_INT32"}}}, {"name": "StatefulPartitionedCall/sequential_2_1/lstm_10_1/while/exit/_138", "op": "Exit", "input": ["StatefulPartitionedCall/sequential_2_1/lstm_10_1/while/StatefulPartitionedCall/sequential_2_1/lstm_10_1/zeros_switch/_130"], "attr": {"_has_manual_control_dependencies": {"b": true}, "T": {"type": "DT_FLOAT"}}}, {"name": "StatefulPartitionedCall/sequential_2_1/lstm_10_1/while/exit/_137", "op": "Exit", "input": ["StatefulPartitionedCall/sequential_2_1/lstm_10_1/while/StatefulPartitionedCall/sequential_2_1/lstm_10_1/TensorArrayV2_1_switch/_129"], "attr": {"_has_manual_control_dependencies": {"b": true}, "T": {"type": "DT_VARIANT"}}}, {"name": "Func/StatefulPartitionedCall/sequential_2_1/lstm_10_1/while/body/_106/input_control_node/_273", "op": "NoOp", "input": ["^StatefulPartitionedCall/sequential_2_1/lstm_10_1/while/StatefulPartitionedCall/sequential_2_1/lstm_10_1/Max_switch/_127", "^StatefulPartitionedCall/sequential_2_1/lstm_10_1/while/StatefulPartitionedCall/sequential_2_1/lstm_10_1/TensorArrayUnstack/TensorListFromTensor_switch/_132", "^StatefulPartitionedCall/sequential_2_1/lstm_10_1/while/StatefulPartitionedCall/sequential_2_1/lstm_10_1/TensorArrayV2_1_switch/_129", "^StatefulPartitionedCall/sequential_2_1/lstm_10_1/while/StatefulPartitionedCall/sequential_2_1/lstm_10_1/time_switch/_128", "^StatefulPartitionedCall/sequential_2_1/lstm_10_1/while/loop_body_control/_133", "^StatefulPartitionedCall/sequential_2_1/lstm_10_1/while/StatefulPartitionedCall/sequential_2_1/lstm_10_1/zeros_1_switch/_131", "^StatefulPartitionedCall/sequential_2_1/lstm_10_1/while/StatefulPartitionedCall/sequential_2_1/lstm_10_1/zeros_switch/_130", "^StatefulPartitionedCall/sequential_2_1/lstm_10_1/while/enter/_114", "^StatefulPartitionedCall/sequential_2_1/lstm_10_1/while/enter/_115", "^StatefulPartitionedCall/sequential_2_1/lstm_10_1/while/enter/_116"], "attr": {"_has_manual_control_dependencies": {"b": true}}}, {"name": "StatefulPartitionedCall/sequential_2_1/lstm_10_1/TensorArrayV2Stack/TensorListStack", "op": "TensorListStack", "input": ["StatefulPartitionedCall/sequential_2_1/lstm_10_1/while/exit/_137", "StatefulPartitionedCall/sequential_2_1/lstm_10_1/TensorArrayV2Stack/TensorListStack/element_shape"], "attr": {"num_elements": {"i": "100"}, "element_dtype": {"type": "DT_FLOAT"}}}, {"name": "StatefulPartitionedCall/sequential_2_1/lstm_10_1/while/body/_106/sequential_2_1/lstm_10_1/while/add_1/y", "op": "Const", "input": ["^Func/StatefulPartitionedCall/sequential_2_1/lstm_10_1/while/body/_106/input_control_node/_273"], "attr": {"value": {"tensor": {"dtype": "DT_INT32", "tensorShape": {}}}, "dtype": {"type": "DT_INT32"}}}, {"name": "StatefulPartitionedCall/sequential_2_1/lstm_10_1/while/body/_106/sequential_2_1/lstm_10_1/while/lstm_cell_1/split/split_dim", "op": "Const", "input": ["^Func/StatefulPartitionedCall/sequential_2_1/lstm_10_1/while/body/_106/input_control_node/_273"], "attr": {"value": {"tensor": {"dtype": "DT_INT32", "tensorShape": {}}}, "dtype": {"type": "DT_INT32"}}}, {"name": "StatefulPartitionedCall/sequential_2_1/lstm_10_1/while/body/_106/sequential_2_1/lstm_10_1/while/add/y", "op": "Const", "input": ["^Func/StatefulPartitionedCall/sequential_2_1/lstm_10_1/while/body/_106/input_control_node/_273"], "attr": {"value": {"tensor": {"dtype": "DT_INT32", "tensorShape": {}}}, "dtype": {"type": "DT_INT32"}}}, {"name": "Func/StatefulPartitionedCall/sequential_2_1/lstm_10_1/while/body/_106/input/_276", "op": "Identity", "input": ["StatefulPartitionedCall/sequential_2_1/lstm_10_1/while/StatefulPartitionedCall/sequential_2_1/lstm_10_1/time_switch/_128:1", "^Func/StatefulPartitionedCall/sequential_2_1/lstm_10_1/while/body/_106/input_control_node/_273"], "attr": {"T": {"type": "DT_INT32"}}}, {"name": "StatefulPartitionedCall/sequential_2_1/lstm_10_1/while/body/_106/sequential_2_1/lstm_10_1/while/TensorArrayV2Read/TensorListGetItem/element_shape", "op": "Const", "input": ["^Func/StatefulPartitionedCall/sequential_2_1/lstm_10_1/while/body/_106/input_control_node/_273"], "attr": {"value": {"tensor": {"dtype": "DT_INT32", "tensorShape": {"dim": [{"size": "2"}]}}}, "dtype": {"type": "DT_INT32"}}}, {"name": "StatefulPartitionedCall/sequential_2_1/lstm_10_1/while/body/_106/sequential_2_1/lstm_10_1/while/lstm_cell_1/Cast/ReadVariableOp", "op": "Const", "input": ["^StatefulPartitionedCall/sequential_2_1/lstm_10_1/while/enter/_114", "^Func/StatefulPartitionedCall/sequential_2_1/lstm_10_1/while/body/_106/input_control_node/_273"], "attr": {"value": {"tensor": {"dtype": "DT_FLOAT", "tensorShape": {"dim": [{"size": "150"}, {"size": "600"}]}}}, "dtype": {"type": "DT_FLOAT"}}}, {"name": "StatefulPartitionedCall/sequential_2_1/lstm_10_1/while/body/_106/sequential_2_1/lstm_10_1/while/lstm_cell_1/Cast_1/ReadVariableOp", "op": "Const", "input": ["^StatefulPartitionedCall/sequential_2_1/lstm_10_1/while/enter/_115", "^Func/StatefulPartitionedCall/sequential_2_1/lstm_10_1/while/body/_106/input_control_node/_273"], "attr": {"value": {"tensor": {"dtype": "DT_FLOAT", "tensorShape": {"dim": [{"size": "150"}, {"size": "600"}]}}}, "dtype": {"type": "DT_FLOAT"}}}, {"name": "StatefulPartitionedCall/sequential_2_1/lstm_10_1/while/body/_106/sequential_2_1/lstm_10_1/while/lstm_cell_1/add_1/ReadVariableOp", "op": "Const", "input": ["^StatefulPartitionedCall/sequential_2_1/lstm_10_1/while/enter/_116", "^Func/StatefulPartitionedCall/sequential_2_1/lstm_10_1/while/body/_106/input_control_node/_273"], "attr": {"value": {"tensor": {"dtype": "DT_FLOAT", "tensorShape": {"dim": [{"size": "600"}]}}}, "dtype": {"type": "DT_FLOAT"}}}, {"name": "StatefulPartitionedCall/sequential_2_1/lstm_11_1/TensorArrayUnstack/TensorListFromTensor", "op": "TensorListFromTensor", "input": ["StatefulPartitionedCall/sequential_2_1/lstm_10_1/TensorArrayV2Stack/TensorListStack", "StatefulPartitionedCall/sequential_2_1/lstm_11_1/TensorArrayUnstack/TensorListFromTensor/element_shape"], "attr": {"shape_type": {"type": "DT_INT32"}, "_has_manual_control_dependencies": {"b": true}, "element_dtype": {"type": "DT_FLOAT"}}, "experimentalType": {"typeId": "TFT_PRODUCT", "args": [{"typeId": "TFT_ARRAY", "args": [{"typeId": "TFT_TENSOR", "args": [{"typeId": "TFT_FLOAT"}]}]}]}}, {"name": "StatefulPartitionedCall/sequential_2_1/lstm_10_1/transpose_1", "op": "Transpose", "input": ["StatefulPartitionedCall/sequential_2_1/lstm_10_1/TensorArrayV2Stack/TensorListStack", "StatefulPartitionedCall/sequential_2_1/lstm_10_1/transpose_1/perm"], "attr": {"Tperm": {"type": "DT_INT32"}, "T": {"type": "DT_FLOAT"}}}, {"name": "StatefulPartitionedCall/sequential_2_1/lstm_10_1/while/body/_106/sequential_2_1/lstm_10_1/while/add_1", "op": "AddV2", "input": ["StatefulPartitionedCall/sequential_2_1/lstm_10_1/while/StatefulPartitionedCall/sequential_2_1/lstm_10_1/while/loop_counter_switch/_126:1", "StatefulPartitionedCall/sequential_2_1/lstm_10_1/while/body/_106/sequential_2_1/lstm_10_1/while/add_1/y"], "attr": {"T": {"type": "DT_INT32"}}}, {"name": "StatefulPartitionedCall/sequential_2_1/lstm_10_1/while/body/_106/sequential_2_1/lstm_10_1/while/add", "op": "AddV2", "input": ["Func/StatefulPartitionedCall/sequential_2_1/lstm_10_1/while/body/_106/input/_276", "StatefulPartitionedCall/sequential_2_1/lstm_10_1/while/body/_106/sequential_2_1/lstm_10_1/while/add/y"], "attr": {"T": {"type": "DT_INT32"}}}, {"name": "StatefulPartitionedCall/sequential_2_1/lstm_10_1/while/body/_106/sequential_2_1/lstm_10_1/while/TensorArrayV2Read/TensorListGetItem", "op": "TensorListGetItem", "input": ["StatefulPartitionedCall/sequential_2_1/lstm_10_1/while/StatefulPartitionedCall/sequential_2_1/lstm_10_1/TensorArrayUnstack/TensorListFromTensor_switch/_132:1", "Func/StatefulPartitionedCall/sequential_2_1/lstm_10_1/while/body/_106/input/_276", "StatefulPartitionedCall/sequential_2_1/lstm_10_1/while/body/_106/sequential_2_1/lstm_10_1/while/TensorArrayV2Read/TensorListGetItem/element_shape"], "attr": {"element_dtype": {"type": "DT_FLOAT"}}}, {"name": "StatefulPartitionedCall/sequential_2_1/lstm_10_1/while/body/_106/sequential_2_1/lstm_10_1/while/lstm_cell_1/MatMul_1", "op": "MatMul", "input": ["StatefulPartitionedCall/sequential_2_1/lstm_10_1/while/StatefulPartitionedCall/sequential_2_1/lstm_10_1/zeros_switch/_130:1", "StatefulPartitionedCall/sequential_2_1/lstm_10_1/while/body/_106/sequential_2_1/lstm_10_1/while/lstm_cell_1/Cast_1/ReadVariableOp"], "device": "/device:CPU:0", "attr": {"grad_a": {"b": false}, "transpose_a": {"b": false}, "T": {"type": "DT_FLOAT"}, "grad_b": {"b": false}, "transpose_b": {"b": false}}}, {"name": "Func/StatefulPartitionedCall/sequential_2_1/lstm_10_1/while/body/_106/output_control_node/_294", "op": "NoOp", "input": ["^StatefulPartitionedCall/sequential_2_1/lstm_10_1/while/body/_106/sequential_2_1/lstm_10_1/while/lstm_cell_1/Cast/ReadVariableOp", "^StatefulPartitionedCall/sequential_2_1/lstm_10_1/while/body/_106/sequential_2_1/lstm_10_1/while/lstm_cell_1/Cast_1/ReadVariableOp", "^StatefulPartitionedCall/sequential_2_1/lstm_10_1/while/body/_106/sequential_2_1/lstm_10_1/while/lstm_cell_1/add_1/ReadVariableOp"], "attr": {"_has_manual_control_dependencies": {"b": true}}}, {"name": "StatefulPartitionedCall/sequential_2_1/lstm_10_1/while/body/_106/sequential_2_1/lstm_10_1/while/NoOp", "op": "NoOp", "input": ["^StatefulPartitionedCall/sequential_2_1/lstm_10_1/while/body/_106/sequential_2_1/lstm_10_1/while/lstm_cell_1/Cast/ReadVariableOp", "^StatefulPartitionedCall/sequential_2_1/lstm_10_1/while/body/_106/sequential_2_1/lstm_10_1/while/lstm_cell_1/Cast_1/ReadVariableOp", "^StatefulPartitionedCall/sequential_2_1/lstm_10_1/while/body/_106/sequential_2_1/lstm_10_1/while/lstm_cell_1/add_1/ReadVariableOp"], "attr": {"_has_manual_control_dependencies": {"b": true}}}, {"name": "StatefulPartitionedCall/sequential_2_1/lstm_11_1/Shape", "op": "Shape", "input": ["StatefulPartitionedCall/sequential_2_1/lstm_10_1/transpose_1"], "attr": {"T": {"type": "DT_FLOAT"}, "out_type": {"type": "DT_INT32"}}, "experimentalType": {"typeId": "TFT_PRODUCT", "args": [{"typeId": "TFT_SHAPE_TENSOR", "args": [{"typeId": "TFT_INT32"}]}]}}, {"name": "StatefulPartitionedCall/sequential_2_1/lstm_10_1/while/body/_106/sequential_2_1/lstm_10_1/while/lstm_cell_1/add", "op": "AddV2", "input": ["StatefulPartitionedCall/sequential_2_1/lstm_10_1/while/body/_106/sequential_2_1/lstm_10_1/while/lstm_cell_1/add_1/ReadVariableOp", "StatefulPartitionedCall/sequential_2_1/lstm_10_1/while/body/_106/sequential_2_1/lstm_10_1/while/lstm_cell_1/MatMul_1"], "attr": {"T": {"type": "DT_FLOAT"}}}, {"name": "StatefulPartitionedCall/sequential_2_1/lstm_10_1/while/next_iteration/_148", "op": "NextIteration", "input": ["StatefulPartitionedCall/sequential_2_1/lstm_10_1/while/StatefulPartitionedCall/sequential_2_1/lstm_10_1/TensorArrayUnstack/TensorListFromTensor_switch/_132:1", "^Func/StatefulPartitionedCall/sequential_2_1/lstm_10_1/while/body/_106/output_control_node/_294", "^Func/StatefulPartitionedCall/sequential_2_1/lstm_10_1/while/body/_106/input_control_node/_273"], "attr": {"T": {"type": "DT_VARIANT"}}}, {"name": "StatefulPartitionedCall/sequential_2_1/lstm_10_1/while/next_iteration/_143", "op": "NextIteration", "input": ["StatefulPartitionedCall/sequential_2_1/lstm_10_1/while/StatefulPartitionedCall/sequential_2_1/lstm_10_1/Max_switch/_127:1", "^Func/StatefulPartitionedCall/sequential_2_1/lstm_10_1/while/body/_106/output_control_node/_294", "^StatefulPartitionedCall/sequential_2_1/lstm_10_1/while/body/_106/sequential_2_1/lstm_10_1/while/NoOp", "^Func/StatefulPartitionedCall/sequential_2_1/lstm_10_1/while/body/_106/input_control_node/_273"], "attr": {"T": {"type": "DT_INT32"}}}, {"name": "StatefulPartitionedCall/sequential_2_1/lstm_10_1/while/next_iteration/_142", "op": "NextIteration", "input": ["StatefulPartitionedCall/sequential_2_1/lstm_10_1/while/body/_106/sequential_2_1/lstm_10_1/while/add_1", "^Func/StatefulPartitionedCall/sequential_2_1/lstm_10_1/while/body/_106/output_control_node/_294", "^StatefulPartitionedCall/sequential_2_1/lstm_10_1/while/body/_106/sequential_2_1/lstm_10_1/while/NoOp"], "attr": {"T": {"type": "DT_INT32"}}}, {"name": "StatefulPartitionedCall/sequential_2_1/lstm_10_1/while/next_iteration/_144", "op": "NextIteration", "input": ["StatefulPartitionedCall/sequential_2_1/lstm_10_1/while/body/_106/sequential_2_1/lstm_10_1/while/add", "^Func/StatefulPartitionedCall/sequential_2_1/lstm_10_1/while/body/_106/output_control_node/_294", "^StatefulPartitionedCall/sequential_2_1/lstm_10_1/while/body/_106/sequential_2_1/lstm_10_1/while/NoOp"], "attr": {"T": {"type": "DT_INT32"}}}, {"name": "StatefulPartitionedCall/sequential_2_1/lstm_11_1/strided_slice", "op": "StridedSlice", "input": ["StatefulPartitionedCall/sequential_2_1/lstm_11_1/Shape", "StatefulPartitionedCall/sequential_2_1/lstm_11_1/strided_slice/stack", "StatefulPartitionedCall/sequential_2_1/lstm_11_1/strided_slice/stack_1", "StatefulPartitionedCall/sequential_2_1/lstm_11_1/strided_slice/stack_2"], "attr": {"shrink_axis_mask": {"i": "1"}, "new_axis_mask": {"i": "0"}, "Index": {"type": "DT_INT32"}, "begin_mask": {"i": "0"}, "end_mask": {"i": "0"}, "T": {"type": "DT_INT32"}, "ellipsis_mask": {"i": "0"}}}, {"name": "StatefulPartitionedCall/sequential_2_1/lstm_10_1/while/body/_106/sequential_2_1/lstm_10_1/while/lstm_cell_1/add_1", "op": "_FusedMatMul", "input": ["StatefulPartitionedCall/sequential_2_1/lstm_10_1/while/body/_106/sequential_2_1/lstm_10_1/while/TensorArrayV2Read/TensorListGetItem", "StatefulPartitionedCall/sequential_2_1/lstm_10_1/while/body/_106/sequential_2_1/lstm_10_1/while/lstm_cell_1/Cast/ReadVariableOp", "StatefulPartitionedCall/sequential_2_1/lstm_10_1/while/body/_106/sequential_2_1/lstm_10_1/while/lstm_cell_1/add"], "device": "/device:CPU:0", "attr": {"transpose_a": {"b": false}, "transpose_b": {"b": false}, "fused_ops": {"list": {"s": ["Qmlhc0FkZA=="]}}, "leakyrelu_alpha": {"f": 0.2}, "num_args": {"i": "1"}, "epsilon": {"f": 0.0}, "T": {"type": "DT_FLOAT"}}}, {"name": "StatefulPartitionedCall/sequential_2_1/lstm_11_1/zeros/packed", "op": "Pack", "input": ["StatefulPartitionedCall/sequential_2_1/lstm_11_1/strided_slice", "StatefulPartitionedCall/sequential_2_1/lstm_11_1/zeros/packed/1"], "attr": {"N": {"i": "2"}, "axis": {"i": "0"}, "T": {"type": "DT_INT32"}}}, {"name": "StatefulPartitionedCall/sequential_2_1/lstm_11_1/zeros_1/packed", "op": "Pack", "input": ["StatefulPartitionedCall/sequential_2_1/lstm_11_1/strided_slice", "StatefulPartitionedCall/sequential_2_1/lstm_11_1/zeros_1/packed/1"], "attr": {"N": {"i": "2"}, "axis": {"i": "0"}, "T": {"type": "DT_INT32"}}}, {"name": "StatefulPartitionedCall/sequential_2_1/lstm_10_1/while/body/_106/sequential_2_1/lstm_10_1/while/lstm_cell_1/split", "op": "Split", "input": ["StatefulPartitionedCall/sequential_2_1/lstm_10_1/while/body/_106/sequential_2_1/lstm_10_1/while/lstm_cell_1/split/split_dim", "StatefulPartitionedCall/sequential_2_1/lstm_10_1/while/body/_106/sequential_2_1/lstm_10_1/while/lstm_cell_1/add_1"], "attr": {"num_split": {"i": "4"}, "T": {"type": "DT_FLOAT"}}}, {"name": "StatefulPartitionedCall/sequential_2_1/lstm_11_1/zeros", "op": "Fill", "input": ["StatefulPartitionedCall/sequential_2_1/lstm_11_1/zeros/packed", "StatefulPartitionedCall/sequential_2_1/lstm_11_1/zeros/Const"], "attr": {"_has_manual_control_dependencies": {"b": true}, "T": {"type": "DT_FLOAT"}, "index_type": {"type": "DT_INT32"}}}, {"name": "StatefulPartitionedCall/sequential_2_1/lstm_11_1/zeros_1", "op": "Fill", "input": ["StatefulPartitionedCall/sequential_2_1/lstm_11_1/zeros_1/packed", "StatefulPartitionedCall/sequential_2_1/lstm_11_1/zeros_1/Const"], "attr": {"_has_manual_control_dependencies": {"b": true}, "T": {"type": "DT_FLOAT"}, "index_type": {"type": "DT_INT32"}}}, {"name": "StatefulPartitionedCall/sequential_2_1/lstm_10_1/while/body/_106/sequential_2_1/lstm_10_1/while/lstm_cell_1/Sigmoid", "op": "Sigmoid", "input": ["StatefulPartitionedCall/sequential_2_1/lstm_10_1/while/body/_106/sequential_2_1/lstm_10_1/while/lstm_cell_1/split"], "attr": {"T": {"type": "DT_FLOAT"}}}, {"name": "StatefulPartitionedCall/sequential_2_1/lstm_10_1/while/body/_106/sequential_2_1/lstm_10_1/while/lstm_cell_1/Sigmoid_1", "op": "Sigmoid", "input": ["StatefulPartitionedCall/sequential_2_1/lstm_10_1/while/body/_106/sequential_2_1/lstm_10_1/while/lstm_cell_1/split:1"], "attr": {"T": {"type": "DT_FLOAT"}}}, {"name": "StatefulPartitionedCall/sequential_2_1/lstm_10_1/while/body/_106/sequential_2_1/lstm_10_1/while/lstm_cell_1/Tanh", "op": "Tanh", "input": ["StatefulPartitionedCall/sequential_2_1/lstm_10_1/while/body/_106/sequential_2_1/lstm_10_1/while/lstm_cell_1/split:2"], "attr": {"T": {"type": "DT_FLOAT"}}}, {"name": "StatefulPartitionedCall/sequential_2_1/lstm_10_1/while/body/_106/sequential_2_1/lstm_10_1/while/lstm_cell_1/Sigmoid_2", "op": "Sigmoid", "input": ["StatefulPartitionedCall/sequential_2_1/lstm_10_1/while/body/_106/sequential_2_1/lstm_10_1/while/lstm_cell_1/split:3"], "attr": {"T": {"type": "DT_FLOAT"}}}, {"name": "StatefulPartitionedCall/sequential_2_1/lstm_11_1/while/LoopControlInputs/_161", "op": "NoOp", "input": ["^StatefulPartitionedCall/sequential_2_1/lstm_11_1/TensorArrayUnstack/TensorListFromTensor", "^StatefulPartitionedCall/sequential_2_1/lstm_11_1/TensorArrayV2_1", "^StatefulPartitionedCall/sequential_2_1/lstm_11_1/zeros", "^StatefulPartitionedCall/sequential_2_1/lstm_11_1/zeros_1"], "attr": {"_has_manual_control_dependencies": {"b": true}}}, {"name": "StatefulPartitionedCall/sequential_2_1/lstm_10_1/while/body/_106/sequential_2_1/lstm_10_1/while/lstm_cell_1/mul", "op": "Mul", "input": ["StatefulPartitionedCall/sequential_2_1/lstm_10_1/while/body/_106/sequential_2_1/lstm_10_1/while/lstm_cell_1/Sigmoid_1", "StatefulPartitionedCall/sequential_2_1/lstm_10_1/while/StatefulPartitionedCall/sequential_2_1/lstm_10_1/zeros_1_switch/_131:1"], "attr": {"T": {"type": "DT_FLOAT"}}}, {"name": "StatefulPartitionedCall/sequential_2_1/lstm_10_1/while/body/_106/sequential_2_1/lstm_10_1/while/lstm_cell_1/mul_1", "op": "Mul", "input": ["StatefulPartitionedCall/sequential_2_1/lstm_10_1/while/body/_106/sequential_2_1/lstm_10_1/while/lstm_cell_1/Sigmoid", "StatefulPartitionedCall/sequential_2_1/lstm_10_1/while/body/_106/sequential_2_1/lstm_10_1/while/lstm_cell_1/Tanh"], "attr": {"T": {"type": "DT_FLOAT"}}}, {"name": "StatefulPartitionedCall/sequential_2_1/lstm_11_1/while/enter/_156", "op": "Enter", "input": ["StatefulPartitionedCall/sequential_2_1/lstm_11_1/zeros_1", "^StatefulPartitionedCall/sequential_2_1/lstm_11_1/while/LoopControlInputs/_161"], "attr": {"is_constant": {"b": false}, "frame_name": {"s": "U3RhdGVmdWxQYXJ0aXRpb25lZENhbGwvc2VxdWVudGlhbF8yXzEvbHN0bV8xMV8xL3doaWxl"}, "T": {"type": "DT_FLOAT"}, "parallel_iterations": {"i": "32"}}}, {"name": "StatefulPartitionedCall/sequential_2_1/lstm_11_1/while/enter/_157", "op": "Enter", "input": ["StatefulPartitionedCall/sequential_2_1/lstm_11_1/TensorArrayUnstack/TensorListFromTensor", "^StatefulPartitionedCall/sequential_2_1/lstm_11_1/while/LoopControlInputs/_161"], "attr": {"is_constant": {"b": false}, "frame_name": {"s": "U3RhdGVmdWxQYXJ0aXRpb25lZENhbGwvc2VxdWVudGlhbF8yXzEvbHN0bV8xMV8xL3doaWxl"}, "T": {"type": "DT_VARIANT"}, "parallel_iterations": {"i": "32"}}}, {"name": "StatefulPartitionedCall/sequential_2_1/lstm_11_1/while/enter/_152", "op": "Enter", "input": ["StatefulPartitionedCall/sequential_2_1/lstm_11_1/Max", "^StatefulPartitionedCall/sequential_2_1/lstm_11_1/while/LoopControlInputs/_161"], "attr": {"is_constant": {"b": false}, "frame_name": {"s": "U3RhdGVmdWxQYXJ0aXRpb25lZENhbGwvc2VxdWVudGlhbF8yXzEvbHN0bV8xMV8xL3doaWxl"}, "T": {"type": "DT_INT32"}, "parallel_iterations": {"i": "32"}}}, {"name": "StatefulPartitionedCall/sequential_2_1/lstm_11_1/while/enter/_154", "op": "Enter", "input": ["StatefulPartitionedCall/sequential_2_1/lstm_11_1/TensorArrayV2_1", "^StatefulPartitionedCall/sequential_2_1/lstm_11_1/while/LoopControlInputs/_161"], "attr": {"is_constant": {"b": false}, "frame_name": {"s": "U3RhdGVmdWxQYXJ0aXRpb25lZENhbGwvc2VxdWVudGlhbF8yXzEvbHN0bV8xMV8xL3doaWxl"}, "T": {"type": "DT_VARIANT"}, "parallel_iterations": {"i": "32"}}}, {"name": "StatefulPartitionedCall/sequential_2_1/lstm_11_1/while/enter/_151", "op": "Enter", "input": ["StatefulPartitionedCall/sequential_2_1/lstm_11_1/while/loop_counter", "^StatefulPartitionedCall/sequential_2_1/lstm_11_1/while/LoopControlInputs/_161"], "attr": {"is_constant": {"b": false}, "frame_name": {"s": "U3RhdGVmdWxQYXJ0aXRpb25lZENhbGwvc2VxdWVudGlhbF8yXzEvbHN0bV8xMV8xL3doaWxl"}, "T": {"type": "DT_INT32"}, "parallel_iterations": {"i": "32"}}}, {"name": "StatefulPartitionedCall/sequential_2_1/lstm_11_1/while/enter/_155", "op": "Enter", "input": ["StatefulPartitionedCall/sequential_2_1/lstm_11_1/zeros", "^StatefulPartitionedCall/sequential_2_1/lstm_11_1/while/LoopControlInputs/_161"], "attr": {"is_constant": {"b": false}, "frame_name": {"s": "U3RhdGVmdWxQYXJ0aXRpb25lZENhbGwvc2VxdWVudGlhbF8yXzEvbHN0bV8xMV8xL3doaWxl"}, "T": {"type": "DT_FLOAT"}, "parallel_iterations": {"i": "32"}}}, {"name": "StatefulPartitionedCall/sequential_2_1/lstm_11_1/while/enter/_153", "op": "Enter", "input": ["StatefulPartitionedCall/sequential_2_1/lstm_11_1/time", "^StatefulPartitionedCall/sequential_2_1/lstm_11_1/while/LoopControlInputs/_161"], "attr": {"is_constant": {"b": false}, "frame_name": {"s": "U3RhdGVmdWxQYXJ0aXRpb25lZENhbGwvc2VxdWVudGlhbF8yXzEvbHN0bV8xMV8xL3doaWxl"}, "T": {"type": "DT_INT32"}, "parallel_iterations": {"i": "32"}}}, {"name": "StatefulPartitionedCall/sequential_2_1/lstm_11_1/while/enter/_158", "op": "Enter", "input": ["Func/StatefulPartitionedCall/input/_10", "^StatefulPartitionedCall/sequential_2_1/lstm_11_1/while/LoopControlInputs/_161"], "attr": {"is_constant": {"b": true}, "_has_manual_control_dependencies": {"b": true}, "T": {"type": "DT_FLOAT"}, "frame_name": {"s": "U3RhdGVmdWxQYXJ0aXRpb25lZENhbGwvc2VxdWVudGlhbF8yXzEvbHN0bV8xMV8xL3doaWxl"}, "parallel_iterations": {"i": "32"}}}, {"name": "StatefulPartitionedCall/sequential_2_1/lstm_11_1/while/enter/_159", "op": "Enter", "input": ["Func/StatefulPartitionedCall/input/_11", "^StatefulPartitionedCall/sequential_2_1/lstm_11_1/while/LoopControlInputs/_161"], "attr": {"is_constant": {"b": true}, "_has_manual_control_dependencies": {"b": true}, "T": {"type": "DT_FLOAT"}, "frame_name": {"s": "U3RhdGVmdWxQYXJ0aXRpb25lZENhbGwvc2VxdWVudGlhbF8yXzEvbHN0bV8xMV8xL3doaWxl"}, "parallel_iterations": {"i": "32"}}}, {"name": "StatefulPartitionedCall/sequential_2_1/lstm_11_1/while/enter/_160", "op": "Enter", "input": ["Func/StatefulPartitionedCall/input/_12", "^StatefulPartitionedCall/sequential_2_1/lstm_11_1/while/LoopControlInputs/_161"], "attr": {"is_constant": {"b": true}, "frame_name": {"s": "U3RhdGVmdWxQYXJ0aXRpb25lZENhbGwvc2VxdWVudGlhbF8yXzEvbHN0bV8xMV8xL3doaWxl"}, "T": {"type": "DT_FLOAT"}, "_has_manual_control_dependencies": {"b": true}, "parallel_iterations": {"i": "32"}}}, {"name": "StatefulPartitionedCall/sequential_2_1/lstm_10_1/while/body/_106/sequential_2_1/lstm_10_1/while/lstm_cell_1/add_2", "op": "AddV2", "input": ["StatefulPartitionedCall/sequential_2_1/lstm_10_1/while/body/_106/sequential_2_1/lstm_10_1/while/lstm_cell_1/mul", "StatefulPartitionedCall/sequential_2_1/lstm_10_1/while/body/_106/sequential_2_1/lstm_10_1/while/lstm_cell_1/mul_1"], "attr": {"T": {"type": "DT_FLOAT"}}}, {"name": "StatefulPartitionedCall/sequential_2_1/lstm_11_1/while/merge/_167", "op": "Merge", "input": ["StatefulPartitionedCall/sequential_2_1/lstm_11_1/while/enter/_156", "StatefulPartitionedCall/sequential_2_1/lstm_11_1/while/next_iteration/_191"], "attr": {"N": {"i": "2"}, "_has_manual_control_dependencies": {"b": true}, "T": {"type": "DT_FLOAT"}}}, {"name": "StatefulPartitionedCall/sequential_2_1/lstm_11_1/while/merge/_168", "op": "Merge", "input": ["StatefulPartitionedCall/sequential_2_1/lstm_11_1/while/enter/_157", "StatefulPartitionedCall/sequential_2_1/lstm_11_1/while/next_iteration/_192"], "attr": {"N": {"i": "2"}, "_has_manual_control_dependencies": {"b": true}, "T": {"type": "DT_VARIANT"}}}, {"name": "StatefulPartitionedCall/sequential_2_1/lstm_11_1/while/merge/_163", "op": "Merge", "input": ["StatefulPartitionedCall/sequential_2_1/lstm_11_1/while/enter/_152", "StatefulPartitionedCall/sequential_2_1/lstm_11_1/while/next_iteration/_187"], "attr": {"N": {"i": "2"}, "_has_manual_control_dependencies": {"b": true}, "T": {"type": "DT_INT32"}}}, {"name": "StatefulPartitionedCall/sequential_2_1/lstm_11_1/while/merge/_165", "op": "Merge", "input": ["StatefulPartitionedCall/sequential_2_1/lstm_11_1/while/enter/_154", "StatefulPartitionedCall/sequential_2_1/lstm_11_1/while/next_iteration/_189"], "attr": {"N": {"i": "2"}, "_has_manual_control_dependencies": {"b": true}, "T": {"type": "DT_VARIANT"}}}, {"name": "StatefulPartitionedCall/sequential_2_1/lstm_11_1/while/merge/_162", "op": "Merge", "input": ["StatefulPartitionedCall/sequential_2_1/lstm_11_1/while/enter/_151", "StatefulPartitionedCall/sequential_2_1/lstm_11_1/while/next_iteration/_186"], "attr": {"N": {"i": "2"}, "_has_manual_control_dependencies": {"b": true}, "T": {"type": "DT_INT32"}}}, {"name": "StatefulPartitionedCall/sequential_2_1/lstm_11_1/while/merge/_166", "op": "Merge", "input": ["StatefulPartitionedCall/sequential_2_1/lstm_11_1/while/enter/_155", "StatefulPartitionedCall/sequential_2_1/lstm_11_1/while/next_iteration/_190"], "attr": {"N": {"i": "2"}, "_has_manual_control_dependencies": {"b": true}, "T": {"type": "DT_FLOAT"}}}, {"name": "StatefulPartitionedCall/sequential_2_1/lstm_11_1/while/merge/_164", "op": "Merge", "input": ["StatefulPartitionedCall/sequential_2_1/lstm_11_1/while/enter/_153", "StatefulPartitionedCall/sequential_2_1/lstm_11_1/while/next_iteration/_188"], "attr": {"N": {"i": "2"}, "_has_manual_control_dependencies": {"b": true}, "T": {"type": "DT_INT32"}}}, {"name": "StatefulPartitionedCall/sequential_2_1/lstm_10_1/while/body/_106/sequential_2_1/lstm_10_1/while/lstm_cell_1/Tanh_1", "op": "Tanh", "input": ["StatefulPartitionedCall/sequential_2_1/lstm_10_1/while/body/_106/sequential_2_1/lstm_10_1/while/lstm_cell_1/add_2"], "attr": {"T": {"type": "DT_FLOAT"}}}, {"name": "StatefulPartitionedCall/sequential_2_1/lstm_10_1/while/next_iteration/_147", "op": "NextIteration", "input": ["StatefulPartitionedCall/sequential_2_1/lstm_10_1/while/body/_106/sequential_2_1/lstm_10_1/while/lstm_cell_1/add_2", "^Func/StatefulPartitionedCall/sequential_2_1/lstm_10_1/while/body/_106/output_control_node/_294", "^StatefulPartitionedCall/sequential_2_1/lstm_10_1/while/body/_106/sequential_2_1/lstm_10_1/while/NoOp"], "attr": {"T": {"type": "DT_FLOAT"}}}, {"name": "Func/StatefulPartitionedCall/sequential_2_1/lstm_11_1/while/cond/_149/input_control_node/_295", "op": "NoOp", "input": ["^StatefulPartitionedCall/sequential_2_1/lstm_11_1/while/enter/_158", "^StatefulPartitionedCall/sequential_2_1/lstm_11_1/while/enter/_159", "^StatefulPartitionedCall/sequential_2_1/lstm_11_1/while/enter/_160", "^StatefulPartitionedCall/sequential_2_1/lstm_11_1/while/merge/_162", "^StatefulPartitionedCall/sequential_2_1/lstm_11_1/while/merge/_163", "^StatefulPartitionedCall/sequential_2_1/lstm_11_1/while/merge/_164", "^StatefulPartitionedCall/sequential_2_1/lstm_11_1/while/merge/_165", "^StatefulPartitionedCall/sequential_2_1/lstm_11_1/while/merge/_166", "^StatefulPartitionedCall/sequential_2_1/lstm_11_1/while/merge/_167", "^StatefulPartitionedCall/sequential_2_1/lstm_11_1/while/merge/_168"], "attr": {"_has_manual_control_dependencies": {"b": true}}}, {"name": "StatefulPartitionedCall/sequential_2_1/lstm_10_1/while/body/_106/sequential_2_1/lstm_10_1/while/lstm_cell_1/mul_2", "op": "Mul", "input": ["StatefulPartitionedCall/sequential_2_1/lstm_10_1/while/body/_106/sequential_2_1/lstm_10_1/while/lstm_cell_1/Sigmoid_2", "StatefulPartitionedCall/sequential_2_1/lstm_10_1/while/body/_106/sequential_2_1/lstm_10_1/while/lstm_cell_1/Tanh_1"], "attr": {"T": {"type": "DT_FLOAT"}}}, {"name": "StatefulPartitionedCall/sequential_2_1/lstm_11_1/while/cond/_149/sequential_2_1/lstm_11_1/while/Less_1", "op": "Less", "input": ["StatefulPartitionedCall/sequential_2_1/lstm_11_1/while/merge/_162", "StatefulPartitionedCall/sequential_2_1/lstm_11_1/while/merge/_163", "^Func/StatefulPartitionedCall/sequential_2_1/lstm_11_1/while/cond/_149/input_control_node/_295"], "attr": {"T": {"type": "DT_INT32"}}}, {"name": "StatefulPartitionedCall/sequential_2_1/lstm_11_1/while/cond/_149/sequential_2_1/lstm_11_1/while/Less/y", "op": "Const", "input": ["^Func/StatefulPartitionedCall/sequential_2_1/lstm_11_1/while/cond/_149/input_control_node/_295"], "attr": {"value": {"tensor": {"dtype": "DT_INT32", "tensorShape": {}}}, "dtype": {"type": "DT_INT32"}}}, {"name": "StatefulPartitionedCall/sequential_2_1/lstm_10_1/while/body/_106/sequential_2_1/lstm_10_1/while/TensorArrayV2Write/TensorListSetItem", "op": "TensorListSetItem", "input": ["StatefulPartitionedCall/sequential_2_1/lstm_10_1/while/StatefulPartitionedCall/sequential_2_1/lstm_10_1/TensorArrayV2_1_switch/_129:1", "Func/StatefulPartitionedCall/sequential_2_1/lstm_10_1/while/body/_106/input/_276", "StatefulPartitionedCall/sequential_2_1/lstm_10_1/while/body/_106/sequential_2_1/lstm_10_1/while/lstm_cell_1/mul_2"], "attr": {"element_dtype": {"type": "DT_FLOAT"}, "resize_if_index_out_of_bounds": {"b": false}}, "experimentalType": {"typeId": "TFT_PRODUCT", "args": [{"typeId": "TFT_ARRAY", "args": [{"typeId": "TFT_TENSOR", "args": [{"typeId": "TFT_FLOAT"}]}]}]}}, {"name": "StatefulPartitionedCall/sequential_2_1/lstm_10_1/while/next_iteration/_146", "op": "NextIteration", "input": ["StatefulPartitionedCall/sequential_2_1/lstm_10_1/while/body/_106/sequential_2_1/lstm_10_1/while/lstm_cell_1/mul_2", "^Func/StatefulPartitionedCall/sequential_2_1/lstm_10_1/while/body/_106/output_control_node/_294", "^StatefulPartitionedCall/sequential_2_1/lstm_10_1/while/body/_106/sequential_2_1/lstm_10_1/while/NoOp"], "attr": {"T": {"type": "DT_FLOAT"}}}, {"name": "StatefulPartitionedCall/sequential_2_1/lstm_11_1/while/cond/_149/sequential_2_1/lstm_11_1/while/Less", "op": "Less", "input": ["StatefulPartitionedCall/sequential_2_1/lstm_11_1/while/merge/_164", "StatefulPartitionedCall/sequential_2_1/lstm_11_1/while/cond/_149/sequential_2_1/lstm_11_1/while/Less/y"], "attr": {"T": {"type": "DT_INT32"}}}, {"name": "StatefulPartitionedCall/sequential_2_1/lstm_10_1/while/next_iteration/_145", "op": "NextIteration", "input": ["StatefulPartitionedCall/sequential_2_1/lstm_10_1/while/body/_106/sequential_2_1/lstm_10_1/while/TensorArrayV2Write/TensorListSetItem", "^Func/StatefulPartitionedCall/sequential_2_1/lstm_10_1/while/body/_106/output_control_node/_294", "^StatefulPartitionedCall/sequential_2_1/lstm_10_1/while/body/_106/sequential_2_1/lstm_10_1/while/NoOp"], "attr": {"T": {"type": "DT_VARIANT"}}}, {"name": "StatefulPartitionedCall/sequential_2_1/lstm_11_1/while/cond/_149/sequential_2_1/lstm_11_1/while/LogicalAnd", "op": "LogicalAnd", "input": ["StatefulPartitionedCall/sequential_2_1/lstm_11_1/while/cond/_149/sequential_2_1/lstm_11_1/while/Less_1", "StatefulPartitionedCall/sequential_2_1/lstm_11_1/while/cond/_149/sequential_2_1/lstm_11_1/while/Less"]}, {"name": "StatefulPartitionedCall/sequential_2_1/lstm_11_1/while/LoopCond/_169", "op": "LoopCond", "input": ["StatefulPartitionedCall/sequential_2_1/lstm_11_1/while/cond/_149/sequential_2_1/lstm_11_1/while/LogicalAnd"]}, {"name": "StatefulPartitionedCall/sequential_2_1/lstm_11_1/while/StatefulPartitionedCall/sequential_2_1/lstm_11_1/Max_switch/_171", "op": "Switch", "input": ["StatefulPartitionedCall/sequential_2_1/lstm_11_1/while/merge/_163", "StatefulPartitionedCall/sequential_2_1/lstm_11_1/while/LoopCond/_169"], "attr": {"_has_manual_control_dependencies": {"b": true}, "T": {"type": "DT_INT32"}}}, {"name": "StatefulPartitionedCall/sequential_2_1/lstm_11_1/while/StatefulPartitionedCall/sequential_2_1/lstm_11_1/TensorArrayV2_1_switch/_173", "op": "Switch", "input": ["StatefulPartitionedCall/sequential_2_1/lstm_11_1/while/merge/_165", "StatefulPartitionedCall/sequential_2_1/lstm_11_1/while/LoopCond/_169"], "attr": {"_has_manual_control_dependencies": {"b": true}, "T": {"type": "DT_VARIANT"}}}, {"name": "StatefulPartitionedCall/sequential_2_1/lstm_11_1/while/StatefulPartitionedCall/sequential_2_1/lstm_11_1/while/loop_counter_switch/_170", "op": "Switch", "input": ["StatefulPartitionedCall/sequential_2_1/lstm_11_1/while/merge/_162", "StatefulPartitionedCall/sequential_2_1/lstm_11_1/while/LoopCond/_169"], "attr": {"T": {"type": "DT_INT32"}}}, {"name": "StatefulPartitionedCall/sequential_2_1/lstm_11_1/while/StatefulPartitionedCall/sequential_2_1/lstm_11_1/TensorArrayUnstack/TensorListFromTensor_switch/_176", "op": "Switch", "input": ["StatefulPartitionedCall/sequential_2_1/lstm_11_1/while/merge/_168", "StatefulPartitionedCall/sequential_2_1/lstm_11_1/while/LoopCond/_169"], "attr": {"_has_manual_control_dependencies": {"b": true}, "T": {"type": "DT_VARIANT"}}}, {"name": "StatefulPartitionedCall/sequential_2_1/lstm_11_1/while/StatefulPartitionedCall/sequential_2_1/lstm_11_1/time_switch/_172", "op": "Switch", "input": ["StatefulPartitionedCall/sequential_2_1/lstm_11_1/while/merge/_164", "StatefulPartitionedCall/sequential_2_1/lstm_11_1/while/LoopCond/_169"], "attr": {"_has_manual_control_dependencies": {"b": true}, "T": {"type": "DT_INT32"}}}, {"name": "StatefulPartitionedCall/sequential_2_1/lstm_11_1/while/StatefulPartitionedCall/sequential_2_1/lstm_11_1/zeros_switch/_174", "op": "Switch", "input": ["StatefulPartitionedCall/sequential_2_1/lstm_11_1/while/merge/_166", "StatefulPartitionedCall/sequential_2_1/lstm_11_1/while/LoopCond/_169"], "attr": {"_has_manual_control_dependencies": {"b": true}, "T": {"type": "DT_FLOAT"}}}, {"name": "StatefulPartitionedCall/sequential_2_1/lstm_11_1/while/StatefulPartitionedCall/sequential_2_1/lstm_11_1/zeros_1_switch/_175", "op": "Switch", "input": ["StatefulPartitionedCall/sequential_2_1/lstm_11_1/while/merge/_167", "StatefulPartitionedCall/sequential_2_1/lstm_11_1/while/LoopCond/_169"], "attr": {"_has_manual_control_dependencies": {"b": true}, "T": {"type": "DT_FLOAT"}}}, {"name": "StatefulPartitionedCall/sequential_2_1/lstm_11_1/while/exit/_179", "op": "Exit", "input": ["StatefulPartitionedCall/sequential_2_1/lstm_11_1/while/StatefulPartitionedCall/sequential_2_1/lstm_11_1/Max_switch/_171"], "attr": {"_has_manual_control_dependencies": {"b": true}, "T": {"type": "DT_INT32"}}}, {"name": "StatefulPartitionedCall/sequential_2_1/lstm_11_1/while/exit/_181", "op": "Exit", "input": ["StatefulPartitionedCall/sequential_2_1/lstm_11_1/while/StatefulPartitionedCall/sequential_2_1/lstm_11_1/TensorArrayV2_1_switch/_173"], "attr": {"_has_manual_control_dependencies": {"b": true}, "T": {"type": "DT_VARIANT"}}}, {"name": "StatefulPartitionedCall/sequential_2_1/lstm_11_1/while/exit/_178", "op": "Exit", "input": ["StatefulPartitionedCall/sequential_2_1/lstm_11_1/while/StatefulPartitionedCall/sequential_2_1/lstm_11_1/while/loop_counter_switch/_170"], "attr": {"_has_manual_control_dependencies": {"b": true}, "T": {"type": "DT_INT32"}}}, {"name": "StatefulPartitionedCall/sequential_2_1/lstm_11_1/while/loop_body_control/_177", "op": "Identity", "input": ["StatefulPartitionedCall/sequential_2_1/lstm_11_1/while/StatefulPartitionedCall/sequential_2_1/lstm_11_1/while/loop_counter_switch/_170:1"], "attr": {"_has_manual_control_dependencies": {"b": true}, "T": {"type": "DT_INT32"}}}, {"name": "StatefulPartitionedCall/sequential_2_1/lstm_11_1/while/exit/_184", "op": "Exit", "input": ["StatefulPartitionedCall/sequential_2_1/lstm_11_1/while/StatefulPartitionedCall/sequential_2_1/lstm_11_1/TensorArrayUnstack/TensorListFromTensor_switch/_176"], "attr": {"_has_manual_control_dependencies": {"b": true}, "T": {"type": "DT_VARIANT"}}}, {"name": "StatefulPartitionedCall/sequential_2_1/lstm_11_1/while/exit/_180", "op": "Exit", "input": ["StatefulPartitionedCall/sequential_2_1/lstm_11_1/while/StatefulPartitionedCall/sequential_2_1/lstm_11_1/time_switch/_172"], "attr": {"_has_manual_control_dependencies": {"b": true}, "T": {"type": "DT_INT32"}}}, {"name": "StatefulPartitionedCall/sequential_2_1/lstm_11_1/while/exit/_182", "op": "Exit", "input": ["StatefulPartitionedCall/sequential_2_1/lstm_11_1/while/StatefulPartitionedCall/sequential_2_1/lstm_11_1/zeros_switch/_174"], "attr": {"_has_manual_control_dependencies": {"b": true}, "T": {"type": "DT_FLOAT"}}}, {"name": "StatefulPartitionedCall/sequential_2_1/lstm_11_1/while/exit/_183", "op": "Exit", "input": ["StatefulPartitionedCall/sequential_2_1/lstm_11_1/while/StatefulPartitionedCall/sequential_2_1/lstm_11_1/zeros_1_switch/_175"], "attr": {"_has_manual_control_dependencies": {"b": true}, "T": {"type": "DT_FLOAT"}}}, {"name": "StatefulPartitionedCall/sequential_2_1/lstm_11_1/TensorArrayV2Stack/TensorListStack", "op": "TensorListStack", "input": ["StatefulPartitionedCall/sequential_2_1/lstm_11_1/while/exit/_181", "StatefulPartitionedCall/sequential_2_1/lstm_11_1/TensorArrayV2Stack/TensorListStack/element_shape"], "attr": {"num_elements": {"i": "1"}, "element_dtype": {"type": "DT_FLOAT"}}}, {"name": "Func/StatefulPartitionedCall/sequential_2_1/lstm_11_1/while/body/_150/input_control_node/_307", "op": "NoOp", "input": ["^StatefulPartitionedCall/sequential_2_1/lstm_11_1/while/StatefulPartitionedCall/sequential_2_1/lstm_11_1/Max_switch/_171", "^StatefulPartitionedCall/sequential_2_1/lstm_11_1/while/StatefulPartitionedCall/sequential_2_1/lstm_11_1/TensorArrayUnstack/TensorListFromTensor_switch/_176", "^StatefulPartitionedCall/sequential_2_1/lstm_11_1/while/StatefulPartitionedCall/sequential_2_1/lstm_11_1/TensorArrayV2_1_switch/_173", "^StatefulPartitionedCall/sequential_2_1/lstm_11_1/while/StatefulPartitionedCall/sequential_2_1/lstm_11_1/time_switch/_172", "^StatefulPartitionedCall/sequential_2_1/lstm_11_1/while/loop_body_control/_177", "^StatefulPartitionedCall/sequential_2_1/lstm_11_1/while/StatefulPartitionedCall/sequential_2_1/lstm_11_1/zeros_1_switch/_175", "^StatefulPartitionedCall/sequential_2_1/lstm_11_1/while/StatefulPartitionedCall/sequential_2_1/lstm_11_1/zeros_switch/_174", "^StatefulPartitionedCall/sequential_2_1/lstm_11_1/while/enter/_158", "^StatefulPartitionedCall/sequential_2_1/lstm_11_1/while/enter/_159", "^StatefulPartitionedCall/sequential_2_1/lstm_11_1/while/enter/_160"], "attr": {"_has_manual_control_dependencies": {"b": true}}}, {"name": "StatefulPartitionedCall/sequential_2_1/lstm_11_1/strided_slice_3", "op": "StridedSlice", "input": ["StatefulPartitionedCall/sequential_2_1/lstm_11_1/TensorArrayV2Stack/TensorListStack", "StatefulPartitionedCall/sequential_2_1/lstm_11_1/strided_slice_3/stack", "StatefulPartitionedCall/sequential_2_1/lstm_11_1/strided_slice_3/stack_1", "StatefulPartitionedCall/sequential_2_1/lstm_11_1/strided_slice_3/stack_2"], "attr": {"shrink_axis_mask": {"i": "1"}, "new_axis_mask": {"i": "0"}, "Index": {"type": "DT_INT32"}, "begin_mask": {"i": "0"}, "end_mask": {"i": "0"}, "T": {"type": "DT_FLOAT"}, "ellipsis_mask": {"i": "0"}}}, {"name": "StatefulPartitionedCall/sequential_2_1/lstm_11_1/while/body/_150/sequential_2_1/lstm_11_1/while/TensorArrayV2Write/TensorListSetItem/index", "op": "Const", "input": ["^Func/StatefulPartitionedCall/sequential_2_1/lstm_11_1/while/body/_150/input_control_node/_307"], "attr": {"value": {"tensor": {"dtype": "DT_INT32", "tensorShape": {}}}, "dtype": {"type": "DT_INT32"}}}, {"name": "StatefulPartitionedCall/sequential_2_1/lstm_11_1/while/body/_150/sequential_2_1/lstm_11_1/while/add_1/y", "op": "Const", "input": ["^Func/StatefulPartitionedCall/sequential_2_1/lstm_11_1/while/body/_150/input_control_node/_307"], "attr": {"value": {"tensor": {"dtype": "DT_INT32", "tensorShape": {}}}, "dtype": {"type": "DT_INT32"}}}, {"name": "StatefulPartitionedCall/sequential_2_1/lstm_11_1/while/body/_150/sequential_2_1/lstm_11_1/while/lstm_cell_1/split/split_dim", "op": "Const", "input": ["^Func/StatefulPartitionedCall/sequential_2_1/lstm_11_1/while/body/_150/input_control_node/_307"], "attr": {"value": {"tensor": {"dtype": "DT_INT32", "tensorShape": {}}}, "dtype": {"type": "DT_INT32"}}}, {"name": "StatefulPartitionedCall/sequential_2_1/lstm_11_1/while/body/_150/sequential_2_1/lstm_11_1/while/add/y", "op": "Const", "input": ["^Func/StatefulPartitionedCall/sequential_2_1/lstm_11_1/while/body/_150/input_control_node/_307"], "attr": {"value": {"tensor": {"dtype": "DT_INT32", "tensorShape": {}}}, "dtype": {"type": "DT_INT32"}}}, {"name": "StatefulPartitionedCall/sequential_2_1/lstm_11_1/while/body/_150/sequential_2_1/lstm_11_1/while/TensorArrayV2Read/TensorListGetItem/element_shape", "op": "Const", "input": ["^Func/StatefulPartitionedCall/sequential_2_1/lstm_11_1/while/body/_150/input_control_node/_307"], "attr": {"value": {"tensor": {"dtype": "DT_INT32", "tensorShape": {"dim": [{"size": "2"}]}}}, "dtype": {"type": "DT_INT32"}}}, {"name": "StatefulPartitionedCall/sequential_2_1/lstm_11_1/while/body/_150/sequential_2_1/lstm_11_1/while/lstm_cell_1/Cast/ReadVariableOp", "op": "Const", "input": ["^StatefulPartitionedCall/sequential_2_1/lstm_11_1/while/enter/_158", "^Func/StatefulPartitionedCall/sequential_2_1/lstm_11_1/while/body/_150/input_control_node/_307"], "attr": {"value": {"tensor": {"dtype": "DT_FLOAT", "tensorShape": {"dim": [{"size": "150"}, {"size": "600"}]}}}, "dtype": {"type": "DT_FLOAT"}}}, {"name": "StatefulPartitionedCall/sequential_2_1/lstm_11_1/while/body/_150/sequential_2_1/lstm_11_1/while/lstm_cell_1/Cast_1/ReadVariableOp", "op": "Const", "input": ["^StatefulPartitionedCall/sequential_2_1/lstm_11_1/while/enter/_159", "^Func/StatefulPartitionedCall/sequential_2_1/lstm_11_1/while/body/_150/input_control_node/_307"], "attr": {"value": {"tensor": {"dtype": "DT_FLOAT", "tensorShape": {"dim": [{"size": "150"}, {"size": "600"}]}}}, "dtype": {"type": "DT_FLOAT"}}}, {"name": "StatefulPartitionedCall/sequential_2_1/lstm_11_1/while/body/_150/sequential_2_1/lstm_11_1/while/lstm_cell_1/add_1/ReadVariableOp", "op": "Const", "input": ["^StatefulPartitionedCall/sequential_2_1/lstm_11_1/while/enter/_160", "^Func/StatefulPartitionedCall/sequential_2_1/lstm_11_1/while/body/_150/input_control_node/_307"], "attr": {"value": {"tensor": {"dtype": "DT_FLOAT", "tensorShape": {"dim": [{"size": "600"}]}}}, "dtype": {"type": "DT_FLOAT"}}}, {"name": "StatefulPartitionedCall/sequential_2_1/dense_2_1/MatMul", "op": "MatMul", "input": ["StatefulPartitionedCall/sequential_2_1/lstm_11_1/strided_slice_3", "StatefulPartitionedCall/sequential_2_1/dense_2_1/Cast/ReadVariableOp"], "device": "/device:CPU:0", "attr": {"transpose_a": {"b": false}, "grad_a": {"b": false}, "T": {"type": "DT_FLOAT"}, "grad_b": {"b": false}, "transpose_b": {"b": false}}}, {"name": "StatefulPartitionedCall/sequential_2_1/lstm_11_1/while/body/_150/sequential_2_1/lstm_11_1/while/add_1", "op": "AddV2", "input": ["StatefulPartitionedCall/sequential_2_1/lstm_11_1/while/StatefulPartitionedCall/sequential_2_1/lstm_11_1/while/loop_counter_switch/_170:1", "StatefulPartitionedCall/sequential_2_1/lstm_11_1/while/body/_150/sequential_2_1/lstm_11_1/while/add_1/y"], "attr": {"T": {"type": "DT_INT32"}}}, {"name": "StatefulPartitionedCall/sequential_2_1/lstm_11_1/while/body/_150/sequential_2_1/lstm_11_1/while/add", "op": "AddV2", "input": ["StatefulPartitionedCall/sequential_2_1/lstm_11_1/while/StatefulPartitionedCall/sequential_2_1/lstm_11_1/time_switch/_172:1", "StatefulPartitionedCall/sequential_2_1/lstm_11_1/while/body/_150/sequential_2_1/lstm_11_1/while/add/y"], "attr": {"T": {"type": "DT_INT32"}}}, {"name": "StatefulPartitionedCall/sequential_2_1/lstm_11_1/while/body/_150/sequential_2_1/lstm_11_1/while/TensorArrayV2Read/TensorListGetItem", "op": "TensorListGetItem", "input": ["StatefulPartitionedCall/sequential_2_1/lstm_11_1/while/StatefulPartitionedCall/sequential_2_1/lstm_11_1/TensorArrayUnstack/TensorListFromTensor_switch/_176:1", "StatefulPartitionedCall/sequential_2_1/lstm_11_1/while/StatefulPartitionedCall/sequential_2_1/lstm_11_1/time_switch/_172:1", "StatefulPartitionedCall/sequential_2_1/lstm_11_1/while/body/_150/sequential_2_1/lstm_11_1/while/TensorArrayV2Read/TensorListGetItem/element_shape"], "attr": {"element_dtype": {"type": "DT_FLOAT"}}}, {"name": "StatefulPartitionedCall/sequential_2_1/lstm_11_1/while/body/_150/sequential_2_1/lstm_11_1/while/lstm_cell_1/MatMul_1", "op": "MatMul", "input": ["StatefulPartitionedCall/sequential_2_1/lstm_11_1/while/StatefulPartitionedCall/sequential_2_1/lstm_11_1/zeros_switch/_174:1", "StatefulPartitionedCall/sequential_2_1/lstm_11_1/while/body/_150/sequential_2_1/lstm_11_1/while/lstm_cell_1/Cast_1/ReadVariableOp"], "device": "/device:CPU:0", "attr": {"grad_a": {"b": false}, "transpose_a": {"b": false}, "T": {"type": "DT_FLOAT"}, "grad_b": {"b": false}, "transpose_b": {"b": false}}}, {"name": "Func/StatefulPartitionedCall/sequential_2_1/lstm_11_1/while/body/_150/output_control_node/_328", "op": "NoOp", "input": ["^StatefulPartitionedCall/sequential_2_1/lstm_11_1/while/body/_150/sequential_2_1/lstm_11_1/while/lstm_cell_1/Cast/ReadVariableOp", "^StatefulPartitionedCall/sequential_2_1/lstm_11_1/while/body/_150/sequential_2_1/lstm_11_1/while/lstm_cell_1/Cast_1/ReadVariableOp", "^StatefulPartitionedCall/sequential_2_1/lstm_11_1/while/body/_150/sequential_2_1/lstm_11_1/while/lstm_cell_1/add_1/ReadVariableOp"], "attr": {"_has_manual_control_dependencies": {"b": true}}}, {"name": "StatefulPartitionedCall/sequential_2_1/lstm_11_1/while/body/_150/sequential_2_1/lstm_11_1/while/NoOp", "op": "NoOp", "input": ["^StatefulPartitionedCall/sequential_2_1/lstm_11_1/while/body/_150/sequential_2_1/lstm_11_1/while/lstm_cell_1/Cast/ReadVariableOp", "^StatefulPartitionedCall/sequential_2_1/lstm_11_1/while/body/_150/sequential_2_1/lstm_11_1/while/lstm_cell_1/Cast_1/ReadVariableOp", "^StatefulPartitionedCall/sequential_2_1/lstm_11_1/while/body/_150/sequential_2_1/lstm_11_1/while/lstm_cell_1/add_1/ReadVariableOp"], "attr": {"_has_manual_control_dependencies": {"b": true}}}, {"name": "Identity", "op": "Identity", "input": ["StatefulPartitionedCall/sequential_2_1/dense_2_1/MatMul", "^StatefulPartitionedCall/sequential_2_1/lstm_9_1/while/exit/_96", "^StatefulPartitionedCall/sequential_2_1/lstm_8_1/while/exit/_51", "^StatefulPartitionedCall/sequential_2_1/lstm_10_1/while/exit/_138", "^StatefulPartitionedCall/sequential_2_1/lstm_10_1/while/exit/_139", "^StatefulPartitionedCall/sequential_2_1/lstm_9_1/while/exit/_90", "^StatefulPartitionedCall/sequential_2_1/lstm_9_1/while/exit/_91", "^StatefulPartitionedCall/sequential_2_1/lstm_9_1/while/exit/_92", "^StatefulPartitionedCall/sequential_2_1/lstm_10_1/while/exit/_140", "^StatefulPartitionedCall/sequential_2_1/lstm_9_1/while/exit/_93", "^StatefulPartitionedCall/sequential_2_1/lstm_9_1/while/exit/_94", "^StatefulPartitionedCall/sequential_2_1/lstm_9_1/while/exit/_95", "^StatefulPartitionedCall/sequential_2_1/lstm_11_1/while/exit/_184", "^StatefulPartitionedCall/sequential_2_1/lstm_8_1/while/exit/_46", "^StatefulPartitionedCall/sequential_2_1/lstm_8_1/while/exit/_47", "^StatefulPartitionedCall/sequential_2_1/lstm_8_1/while/exit/_48", "^StatefulPartitionedCall/sequential_2_1/lstm_8_1/while/exit/_52", "^StatefulPartitionedCall/sequential_2_1/lstm_8_1/while/exit/_49", "^StatefulPartitionedCall/sequential_2_1/lstm_8_1/while/exit/_50", "^StatefulPartitionedCall/sequential_2_1/lstm_11_1/while/exit/_178", "^StatefulPartitionedCall/sequential_2_1/lstm_11_1/while/exit/_179", "^StatefulPartitionedCall/sequential_2_1/lstm_11_1/while/exit/_180", "^StatefulPartitionedCall/sequential_2_1/lstm_11_1/while/exit/_181", "^StatefulPartitionedCall/sequential_2_1/lstm_11_1/while/exit/_182", "^StatefulPartitionedCall/sequential_2_1/lstm_11_1/while/exit/_183", "^StatefulPartitionedCall/sequential_2_1/lstm_10_1/while/exit/_134", "^StatefulPartitionedCall/sequential_2_1/lstm_10_1/while/exit/_135", "^StatefulPartitionedCall/sequential_2_1/lstm_10_1/while/exit/_136", "^StatefulPartitionedCall/sequential_2_1/lstm_10_1/while/exit/_137"], "attr": {"T": {"type": "DT_FLOAT"}}}, {"name": "StatefulPartitionedCall/sequential_2_1/lstm_11_1/while/body/_150/sequential_2_1/lstm_11_1/while/lstm_cell_1/add", "op": "AddV2", "input": ["StatefulPartitionedCall/sequential_2_1/lstm_11_1/while/body/_150/sequential_2_1/lstm_11_1/while/lstm_cell_1/add_1/ReadVariableOp", "StatefulPartitionedCall/sequential_2_1/lstm_11_1/while/body/_150/sequential_2_1/lstm_11_1/while/lstm_cell_1/MatMul_1"], "attr": {"T": {"type": "DT_FLOAT"}}}, {"name": "StatefulPartitionedCall/sequential_2_1/lstm_11_1/while/next_iteration/_192", "op": "NextIteration", "input": ["StatefulPartitionedCall/sequential_2_1/lstm_11_1/while/StatefulPartitionedCall/sequential_2_1/lstm_11_1/TensorArrayUnstack/TensorListFromTensor_switch/_176:1", "^Func/StatefulPartitionedCall/sequential_2_1/lstm_11_1/while/body/_150/output_control_node/_328", "^Func/StatefulPartitionedCall/sequential_2_1/lstm_11_1/while/body/_150/input_control_node/_307"], "attr": {"T": {"type": "DT_VARIANT"}}}, {"name": "StatefulPartitionedCall/sequential_2_1/lstm_11_1/while/next_iteration/_187", "op": "NextIteration", "input": ["StatefulPartitionedCall/sequential_2_1/lstm_11_1/while/StatefulPartitionedCall/sequential_2_1/lstm_11_1/Max_switch/_171:1", "^Func/StatefulPartitionedCall/sequential_2_1/lstm_11_1/while/body/_150/output_control_node/_328", "^StatefulPartitionedCall/sequential_2_1/lstm_11_1/while/body/_150/sequential_2_1/lstm_11_1/while/NoOp", "^Func/StatefulPartitionedCall/sequential_2_1/lstm_11_1/while/body/_150/input_control_node/_307"], "attr": {"T": {"type": "DT_INT32"}}}, {"name": "StatefulPartitionedCall/sequential_2_1/lstm_11_1/while/next_iteration/_186", "op": "NextIteration", "input": ["StatefulPartitionedCall/sequential_2_1/lstm_11_1/while/body/_150/sequential_2_1/lstm_11_1/while/add_1", "^Func/StatefulPartitionedCall/sequential_2_1/lstm_11_1/while/body/_150/output_control_node/_328", "^StatefulPartitionedCall/sequential_2_1/lstm_11_1/while/body/_150/sequential_2_1/lstm_11_1/while/NoOp"], "attr": {"T": {"type": "DT_INT32"}}}, {"name": "StatefulPartitionedCall/sequential_2_1/lstm_11_1/while/next_iteration/_188", "op": "NextIteration", "input": ["StatefulPartitionedCall/sequential_2_1/lstm_11_1/while/body/_150/sequential_2_1/lstm_11_1/while/add", "^Func/StatefulPartitionedCall/sequential_2_1/lstm_11_1/while/body/_150/output_control_node/_328", "^StatefulPartitionedCall/sequential_2_1/lstm_11_1/while/body/_150/sequential_2_1/lstm_11_1/while/NoOp"], "attr": {"T": {"type": "DT_INT32"}}}, {"name": "StatefulPartitionedCall/sequential_2_1/lstm_11_1/while/body/_150/sequential_2_1/lstm_11_1/while/lstm_cell_1/add_1", "op": "_FusedMatMul", "input": ["StatefulPartitionedCall/sequential_2_1/lstm_11_1/while/body/_150/sequential_2_1/lstm_11_1/while/TensorArrayV2Read/TensorListGetItem", "StatefulPartitionedCall/sequential_2_1/lstm_11_1/while/body/_150/sequential_2_1/lstm_11_1/while/lstm_cell_1/Cast/ReadVariableOp", "StatefulPartitionedCall/sequential_2_1/lstm_11_1/while/body/_150/sequential_2_1/lstm_11_1/while/lstm_cell_1/add"], "device": "/device:CPU:0", "attr": {"transpose_a": {"b": false}, "transpose_b": {"b": false}, "fused_ops": {"list": {"s": ["Qmlhc0FkZA=="]}}, "num_args": {"i": "1"}, "leakyrelu_alpha": {"f": 0.2}, "epsilon": {"f": 0.0}, "T": {"type": "DT_FLOAT"}}}, {"name": "StatefulPartitionedCall/sequential_2_1/lstm_11_1/while/body/_150/sequential_2_1/lstm_11_1/while/lstm_cell_1/split", "op": "Split", "input": ["StatefulPartitionedCall/sequential_2_1/lstm_11_1/while/body/_150/sequential_2_1/lstm_11_1/while/lstm_cell_1/split/split_dim", "StatefulPartitionedCall/sequential_2_1/lstm_11_1/while/body/_150/sequential_2_1/lstm_11_1/while/lstm_cell_1/add_1"], "attr": {"num_split": {"i": "4"}, "T": {"type": "DT_FLOAT"}}}, {"name": "StatefulPartitionedCall/sequential_2_1/lstm_11_1/while/body/_150/sequential_2_1/lstm_11_1/while/lstm_cell_1/Sigmoid", "op": "Sigmoid", "input": ["StatefulPartitionedCall/sequential_2_1/lstm_11_1/while/body/_150/sequential_2_1/lstm_11_1/while/lstm_cell_1/split"], "attr": {"T": {"type": "DT_FLOAT"}}}, {"name": "StatefulPartitionedCall/sequential_2_1/lstm_11_1/while/body/_150/sequential_2_1/lstm_11_1/while/lstm_cell_1/Sigmoid_1", "op": "Sigmoid", "input": ["StatefulPartitionedCall/sequential_2_1/lstm_11_1/while/body/_150/sequential_2_1/lstm_11_1/while/lstm_cell_1/split:1"], "attr": {"T": {"type": "DT_FLOAT"}}}, {"name": "StatefulPartitionedCall/sequential_2_1/lstm_11_1/while/body/_150/sequential_2_1/lstm_11_1/while/lstm_cell_1/Tanh", "op": "Tanh", "input": ["StatefulPartitionedCall/sequential_2_1/lstm_11_1/while/body/_150/sequential_2_1/lstm_11_1/while/lstm_cell_1/split:2"], "attr": {"T": {"type": "DT_FLOAT"}}}, {"name": "StatefulPartitionedCall/sequential_2_1/lstm_11_1/while/body/_150/sequential_2_1/lstm_11_1/while/lstm_cell_1/Sigmoid_2", "op": "Sigmoid", "input": ["StatefulPartitionedCall/sequential_2_1/lstm_11_1/while/body/_150/sequential_2_1/lstm_11_1/while/lstm_cell_1/split:3"], "attr": {"T": {"type": "DT_FLOAT"}}}, {"name": "StatefulPartitionedCall/sequential_2_1/lstm_11_1/while/body/_150/sequential_2_1/lstm_11_1/while/lstm_cell_1/mul", "op": "Mul", "input": ["StatefulPartitionedCall/sequential_2_1/lstm_11_1/while/body/_150/sequential_2_1/lstm_11_1/while/lstm_cell_1/Sigmoid_1", "StatefulPartitionedCall/sequential_2_1/lstm_11_1/while/StatefulPartitionedCall/sequential_2_1/lstm_11_1/zeros_1_switch/_175:1"], "attr": {"T": {"type": "DT_FLOAT"}}}, {"name": "StatefulPartitionedCall/sequential_2_1/lstm_11_1/while/body/_150/sequential_2_1/lstm_11_1/while/lstm_cell_1/mul_1", "op": "Mul", "input": ["StatefulPartitionedCall/sequential_2_1/lstm_11_1/while/body/_150/sequential_2_1/lstm_11_1/while/lstm_cell_1/Sigmoid", "StatefulPartitionedCall/sequential_2_1/lstm_11_1/while/body/_150/sequential_2_1/lstm_11_1/while/lstm_cell_1/Tanh"], "attr": {"T": {"type": "DT_FLOAT"}}}, {"name": "StatefulPartitionedCall/sequential_2_1/lstm_11_1/while/body/_150/sequential_2_1/lstm_11_1/while/lstm_cell_1/add_2", "op": "AddV2", "input": ["StatefulPartitionedCall/sequential_2_1/lstm_11_1/while/body/_150/sequential_2_1/lstm_11_1/while/lstm_cell_1/mul", "StatefulPartitionedCall/sequential_2_1/lstm_11_1/while/body/_150/sequential_2_1/lstm_11_1/while/lstm_cell_1/mul_1"], "attr": {"T": {"type": "DT_FLOAT"}}}, {"name": "StatefulPartitionedCall/sequential_2_1/lstm_11_1/while/body/_150/sequential_2_1/lstm_11_1/while/lstm_cell_1/Tanh_1", "op": "Tanh", "input": ["StatefulPartitionedCall/sequential_2_1/lstm_11_1/while/body/_150/sequential_2_1/lstm_11_1/while/lstm_cell_1/add_2"], "attr": {"T": {"type": "DT_FLOAT"}}}, {"name": "StatefulPartitionedCall/sequential_2_1/lstm_11_1/while/next_iteration/_191", "op": "NextIteration", "input": ["StatefulPartitionedCall/sequential_2_1/lstm_11_1/while/body/_150/sequential_2_1/lstm_11_1/while/lstm_cell_1/add_2", "^Func/StatefulPartitionedCall/sequential_2_1/lstm_11_1/while/body/_150/output_control_node/_328", "^StatefulPartitionedCall/sequential_2_1/lstm_11_1/while/body/_150/sequential_2_1/lstm_11_1/while/NoOp"], "attr": {"T": {"type": "DT_FLOAT"}}}, {"name": "StatefulPartitionedCall/sequential_2_1/lstm_11_1/while/body/_150/sequential_2_1/lstm_11_1/while/lstm_cell_1/mul_2", "op": "Mul", "input": ["StatefulPartitionedCall/sequential_2_1/lstm_11_1/while/body/_150/sequential_2_1/lstm_11_1/while/lstm_cell_1/Sigmoid_2", "StatefulPartitionedCall/sequential_2_1/lstm_11_1/while/body/_150/sequential_2_1/lstm_11_1/while/lstm_cell_1/Tanh_1"], "attr": {"T": {"type": "DT_FLOAT"}}}, {"name": "StatefulPartitionedCall/sequential_2_1/lstm_11_1/while/body/_150/sequential_2_1/lstm_11_1/while/TensorArrayV2Write/TensorListSetItem", "op": "TensorListSetItem", "input": ["StatefulPartitionedCall/sequential_2_1/lstm_11_1/while/StatefulPartitionedCall/sequential_2_1/lstm_11_1/TensorArrayV2_1_switch/_173:1", "StatefulPartitionedCall/sequential_2_1/lstm_11_1/while/body/_150/sequential_2_1/lstm_11_1/while/TensorArrayV2Write/TensorListSetItem/index", "StatefulPartitionedCall/sequential_2_1/lstm_11_1/while/body/_150/sequential_2_1/lstm_11_1/while/lstm_cell_1/mul_2"], "attr": {"element_dtype": {"type": "DT_FLOAT"}, "resize_if_index_out_of_bounds": {"b": false}}, "experimentalType": {"typeId": "TFT_PRODUCT", "args": [{"typeId": "TFT_ARRAY", "args": [{"typeId": "TFT_TENSOR", "args": [{"typeId": "TFT_FLOAT"}]}]}]}}, {"name": "StatefulPartitionedCall/sequential_2_1/lstm_11_1/while/next_iteration/_190", "op": "NextIteration", "input": ["StatefulPartitionedCall/sequential_2_1/lstm_11_1/while/body/_150/sequential_2_1/lstm_11_1/while/lstm_cell_1/mul_2", "^Func/StatefulPartitionedCall/sequential_2_1/lstm_11_1/while/body/_150/output_control_node/_328", "^StatefulPartitionedCall/sequential_2_1/lstm_11_1/while/body/_150/sequential_2_1/lstm_11_1/while/NoOp"], "attr": {"T": {"type": "DT_FLOAT"}}}, {"name": "StatefulPartitionedCall/sequential_2_1/lstm_11_1/while/next_iteration/_189", "op": "NextIteration", "input": ["StatefulPartitionedCall/sequential_2_1/lstm_11_1/while/body/_150/sequential_2_1/lstm_11_1/while/TensorArrayV2Write/TensorListSetItem", "^Func/StatefulPartitionedCall/sequential_2_1/lstm_11_1/while/body/_150/output_control_node/_328", "^StatefulPartitionedCall/sequential_2_1/lstm_11_1/while/body/_150/sequential_2_1/lstm_11_1/while/NoOp"], "attr": {"T": {"type": "DT_VARIANT"}}}], "library": {}, "versions": {"producer": 1994}}, "weightsManifest": [{"paths": ["group1-shard1of2.bin", "group1-shard2of2.bin"], "weights": [{"name": "StatefulPartitionedCall/sequential_2_1/lstm_11_1/TensorArrayV2Stack/TensorListStack/element_shape", "shape": [2], "dtype": "int32"}, {"name": "StatefulPartitionedCall/sequential_2_1/lstm_11_1/strided_slice_3/stack", "shape": [1], "dtype": "int32"}, {"name": "StatefulPartitionedCall/sequential_2_1/lstm_11_1/strided_slice_3/stack_1", "shape": [1], "dtype": "int32"}, {"name": "StatefulPartitionedCall/sequential_2_1/lstm_11_1/strided_slice_3/stack_2", "shape": [1], "dtype": "int32"}, {"name": "StatefulPartitionedCall/sequential_2_1/dense_2_1/Cast/ReadVariableOp", "shape": [150, 1], "dtype": "float32"}, {"name": "StatefulPartitionedCall/sequential_2_1/lstm_11_1/Max", "shape": [], "dtype": "int32"}, {"name": "StatefulPartitionedCall/sequential_2_1/lstm_11_1/while/loop_counter", "shape": [], "dtype": "int32"}, {"name": "StatefulPartitionedCall/sequential_2_1/lstm_11_1/time", "shape": [], "dtype": "int32"}, {"name": "Func/StatefulPartitionedCall/input/_10", "shape": [150, 600], "dtype": "float32"}, {"name": "Func/StatefulPartitionedCall/input/_11", "shape": [150, 600], "dtype": "float32"}, {"name": "Func/StatefulPartitionedCall/input/_12", "shape": [600], "dtype": "float32"}, {"name": "StatefulPartitionedCall/sequential_2_1/lstm_11_1/TensorArrayUnstack/TensorListFromTensor/element_shape", "shape": [2], "dtype": "int32"}, {"name": "StatefulPartitionedCall/sequential_2_1/lstm_11_1/TensorArrayV2_1/element_shape", "shape": [2], "dtype": "int32"}, {"name": "StatefulPartitionedCall/sequential_2_1/lstm_11_1/TensorArrayV2_1/num_elements", "shape": [], "dtype": "int32"}, {"name": "StatefulPartitionedCall/sequential_2_1/lstm_11_1/zeros/packed/1", "shape": [], "dtype": "int32"}, {"name": "StatefulPartitionedCall/sequential_2_1/lstm_11_1/zeros/Const", "shape": [], "dtype": "float32"}, {"name": "StatefulPartitionedCall/sequential_2_1/lstm_10_1/TensorArrayV2Stack/TensorListStack/element_shape", "shape": [2], "dtype": "int32"}, {"name": "StatefulPartitionedCall/sequential_2_1/lstm_10_1/transpose_1/perm", "shape": [3], "dtype": "int32"}, {"name": "StatefulPartitionedCall/sequential_2_1/lstm_11_1/strided_slice/stack", "shape": [1], "dtype": "int32"}, {"name": "StatefulPartitionedCall/sequential_2_1/lstm_11_1/strided_slice/stack_1", "shape": [1], "dtype": "int32"}, {"name": "StatefulPartitionedCall/sequential_2_1/lstm_11_1/strided_slice/stack_2", "shape": [1], "dtype": "int32"}, {"name": "StatefulPartitionedCall/sequential_2_1/lstm_11_1/zeros_1/packed/1", "shape": [], "dtype": "int32"}, {"name": "StatefulPartitionedCall/sequential_2_1/lstm_11_1/zeros_1/Const", "shape": [], "dtype": "float32"}, {"name": "StatefulPartitionedCall/sequential_2_1/lstm_10_1/Max", "shape": [], "dtype": "int32"}, {"name": "StatefulPartitionedCall/sequential_2_1/lstm_10_1/while/loop_counter", "shape": [], "dtype": "int32"}, {"name": "StatefulPartitionedCall/sequential_2_1/lstm_10_1/time", "shape": [], "dtype": "int32"}, {"name": "Func/StatefulPartitionedCall/input/_7", "shape": [150, 600], "dtype": "float32"}, {"name": "Func/StatefulPartitionedCall/input/_8", "shape": [150, 600], "dtype": "float32"}, {"name": "Func/StatefulPartitionedCall/input/_9", "shape": [600], "dtype": "float32"}, {"name": "StatefulPartitionedCall/sequential_2_1/lstm_10_1/TensorArrayUnstack/TensorListFromTensor/element_shape", "shape": [2], "dtype": "int32"}, {"name": "StatefulPartitionedCall/sequential_2_1/lstm_10_1/TensorArrayV2_1/element_shape", "shape": [2], "dtype": "int32"}, {"name": "StatefulPartitionedCall/sequential_2_1/lstm_10_1/TensorArrayV2_1/num_elements", "shape": [], "dtype": "int32"}, {"name": "StatefulPartitionedCall/sequential_2_1/lstm_10_1/zeros/packed/1", "shape": [], "dtype": "int32"}, {"name": "StatefulPartitionedCall/sequential_2_1/lstm_10_1/zeros/Const", "shape": [], "dtype": "float32"}, {"name": "StatefulPartitionedCall/sequential_2_1/lstm_9_1/Max", "shape": [], "dtype": "int32"}, {"name": "StatefulPartitionedCall/sequential_2_1/lstm_9_1/while/loop_counter", "shape": [], "dtype": "int32"}, {"name": "StatefulPartitionedCall/sequential_2_1/lstm_9_1/time", "shape": [], "dtype": "int32"}, {"name": "Func/StatefulPartitionedCall/input/_4", "shape": [150, 600], "dtype": "float32"}, {"name": "Func/StatefulPartitionedCall/input/_5", "shape": [150, 600], "dtype": "float32"}, {"name": "Func/StatefulPartitionedCall/input/_6", "shape": [600], "dtype": "float32"}, {"name": "StatefulPartitionedCall/sequential_2_1/lstm_9_1/TensorArrayUnstack/TensorListFromTensor/element_shape", "shape": [2], "dtype": "int32"}, {"name": "StatefulPartitionedCall/sequential_2_1/lstm_9_1/TensorArrayV2_1/element_shape", "shape": [2], "dtype": "int32"}, {"name": "StatefulPartitionedCall/sequential_2_1/lstm_9_1/TensorArrayV2_1/num_elements", "shape": [], "dtype": "int32"}, {"name": "StatefulPartitionedCall/sequential_2_1/lstm_9_1/zeros/packed/1", "shape": [], "dtype": "int32"}, {"name": "StatefulPartitionedCall/sequential_2_1/lstm_9_1/zeros/Const", "shape": [], "dtype": "float32"}, {"name": "StatefulPartitionedCall/sequential_2_1/lstm_8_1/Max", "shape": [], "dtype": "int32"}, {"name": "StatefulPartitionedCall/sequential_2_1/lstm_8_1/while/loop_counter", "shape": [], "dtype": "int32"}, {"name": "StatefulPartitionedCall/sequential_2_1/lstm_8_1/time", "shape": [], "dtype": "int32"}, {"name": "Func/StatefulPartitionedCall/input/_1", "shape": [1, 600], "dtype": "float32"}, {"name": "Func/StatefulPartitionedCall/input/_2", "shape": [150, 600], "dtype": "float32"}, {"name": "Func/StatefulPartitionedCall/input/_3", "shape": [600], "dtype": "float32"}, {"name": "StatefulPartitionedCall/sequential_2_1/lstm_8_1/transpose/perm", "shape": [3], "dtype": "int32"}, {"name": "StatefulPartitionedCall/sequential_2_1/lstm_8_1/TensorArrayUnstack/TensorListFromTensor/element_shape", "shape": [2], "dtype": "int32"}, {"name": "StatefulPartitionedCall/sequential_2_1/lstm_8_1/TensorArrayV2_1/element_shape", "shape": [2], "dtype": "int32"}, {"name": "StatefulPartitionedCall/sequential_2_1/lstm_8_1/TensorArrayV2_1/num_elements", "shape": [], "dtype": "int32"}, {"name": "StatefulPartitionedCall/sequential_2_1/lstm_8_1/zeros/packed/1", "shape": [], "dtype": "int32"}, {"name": "StatefulPartitionedCall/sequential_2_1/lstm_8_1/zeros/Const", "shape": [], "dtype": "float32"}, {"name": "StatefulPartitionedCall/sequential_2_1/lstm_8_1/strided_slice/stack", "shape": [1], "dtype": "int32"}, {"name": "StatefulPartitionedCall/sequential_2_1/lstm_8_1/strided_slice/stack_1", "shape": [1], "dtype": "int32"}, {"name": "StatefulPartitionedCall/sequential_2_1/lstm_8_1/strided_slice/stack_2", "shape": [1], "dtype": "int32"}, {"name": "StatefulPartitionedCall/sequential_2_1/lstm_8_1/zeros_1/packed/1", "shape": [], "dtype": "int32"}, {"name": "StatefulPartitionedCall/sequential_2_1/lstm_8_1/zeros_1/Const", "shape": [], "dtype": "float32"}, {"name": "StatefulPartitionedCall/sequential_2_1/lstm_8_1/TensorArrayV2Stack/TensorListStack/element_shape", "shape": [2], "dtype": "int32"}, {"name": "StatefulPartitionedCall/sequential_2_1/lstm_8_1/transpose_1/perm", "shape": [3], "dtype": "int32"}, {"name": "StatefulPartitionedCall/sequential_2_1/lstm_9_1/strided_slice/stack", "shape": [1], "dtype": "int32"}, {"name": "StatefulPartitionedCall/sequential_2_1/lstm_9_1/strided_slice/stack_1", "shape": [1], "dtype": "int32"}, {"name": "StatefulPartitionedCall/sequential_2_1/lstm_9_1/strided_slice/stack_2", "shape": [1], "dtype": "int32"}, {"name": "StatefulPartitionedCall/sequential_2_1/lstm_9_1/zeros_1/packed/1", "shape": [], "dtype": "int32"}, {"name": "StatefulPartitionedCall/sequential_2_1/lstm_9_1/zeros_1/Const", "shape": [], "dtype": "float32"}, {"name": "StatefulPartitionedCall/sequential_2_1/lstm_9_1/TensorArrayV2Stack/TensorListStack/element_shape", "shape": [2], "dtype": "int32"}, {"name": "StatefulPartitionedCall/sequential_2_1/lstm_9_1/transpose_1/perm", "shape": [3], "dtype": "int32"}, {"name": "StatefulPartitionedCall/sequential_2_1/lstm_10_1/strided_slice/stack", "shape": [1], "dtype": "int32"}, {"name": "StatefulPartitionedCall/sequential_2_1/lstm_10_1/strided_slice/stack_1", "shape": [1], "dtype": "int32"}, {"name": "StatefulPartitionedCall/sequential_2_1/lstm_10_1/strided_slice/stack_2", "shape": [1], "dtype": "int32"}, {"name": "StatefulPartitionedCall/sequential_2_1/lstm_10_1/zeros_1/packed/1", "shape": [], "dtype": "int32"}, {"name": "StatefulPartitionedCall/sequential_2_1/lstm_10_1/zeros_1/Const", "shape": [], "dtype": "float32"}, {"name": "StatefulPartitionedCall/sequential_2_1/lstm_8_1/while/cond/_17/sequential_2_1/lstm_8_1/while/Less/y", "shape": [], "dtype": "int32"}, {"name": "StatefulPartitionedCall/sequential_2_1/lstm_8_1/while/body/_18/sequential_2_1/lstm_8_1/while/add_1/y", "shape": [], "dtype": "int32"}, {"name": "StatefulPartitionedCall/sequential_2_1/lstm_8_1/while/body/_18/sequential_2_1/lstm_8_1/while/lstm_cell_1/split/split_dim", "shape": [], "dtype": "int32"}, {"name": "StatefulPartitionedCall/sequential_2_1/lstm_8_1/while/body/_18/sequential_2_1/lstm_8_1/while/add/y", "shape": [], "dtype": "int32"}, {"name": "StatefulPartitionedCall/sequential_2_1/lstm_8_1/while/body/_18/sequential_2_1/lstm_8_1/while/TensorArrayV2Read/TensorListGetItem/element_shape", "shape": [2], "dtype": "int32"}, {"name": "StatefulPartitionedCall/sequential_2_1/lstm_8_1/while/body/_18/sequential_2_1/lstm_8_1/while/lstm_cell_1/Cast/ReadVariableOp", "shape": [1, 600], "dtype": "float32"}, {"name": "StatefulPartitionedCall/sequential_2_1/lstm_8_1/while/body/_18/sequential_2_1/lstm_8_1/while/lstm_cell_1/Cast_1/ReadVariableOp", "shape": [150, 600], "dtype": "float32"}, {"name": "StatefulPartitionedCall/sequential_2_1/lstm_8_1/while/body/_18/sequential_2_1/lstm_8_1/while/lstm_cell_1/add_1/ReadVariableOp", "shape": [600], "dtype": "float32"}, {"name": "StatefulPartitionedCall/sequential_2_1/lstm_9_1/while/cond/_61/sequential_2_1/lstm_9_1/while/Less/y", "shape": [], "dtype": "int32"}, {"name": "StatefulPartitionedCall/sequential_2_1/lstm_9_1/while/body/_62/sequential_2_1/lstm_9_1/while/add_1/y", "shape": [], "dtype": "int32"}, {"name": "StatefulPartitionedCall/sequential_2_1/lstm_9_1/while/body/_62/sequential_2_1/lstm_9_1/while/lstm_cell_1/split/split_dim", "shape": [], "dtype": "int32"}, {"name": "StatefulPartitionedCall/sequential_2_1/lstm_9_1/while/body/_62/sequential_2_1/lstm_9_1/while/add/y", "shape": [], "dtype": "int32"}, {"name": "StatefulPartitionedCall/sequential_2_1/lstm_9_1/while/body/_62/sequential_2_1/lstm_9_1/while/TensorArrayV2Read/TensorListGetItem/element_shape", "shape": [2], "dtype": "int32"}, {"name": "StatefulPartitionedCall/sequential_2_1/lstm_9_1/while/body/_62/sequential_2_1/lstm_9_1/while/lstm_cell_1/Cast/ReadVariableOp", "shape": [150, 600], "dtype": "float32"}, {"name": "StatefulPartitionedCall/sequential_2_1/lstm_9_1/while/body/_62/sequential_2_1/lstm_9_1/while/lstm_cell_1/Cast_1/ReadVariableOp", "shape": [150, 600], "dtype": "float32"}, {"name": "StatefulPartitionedCall/sequential_2_1/lstm_9_1/while/body/_62/sequential_2_1/lstm_9_1/while/lstm_cell_1/add_1/ReadVariableOp", "shape": [600], "dtype": "float32"}, {"name": "StatefulPartitionedCall/sequential_2_1/lstm_10_1/while/cond/_105/sequential_2_1/lstm_10_1/while/Less/y", "shape": [], "dtype": "int32"}, {"name": "StatefulPartitionedCall/sequential_2_1/lstm_10_1/while/body/_106/sequential_2_1/lstm_10_1/while/add_1/y", "shape": [], "dtype": "int32"}, {"name": "StatefulPartitionedCall/sequential_2_1/lstm_10_1/while/body/_106/sequential_2_1/lstm_10_1/while/lstm_cell_1/split/split_dim", "shape": [], "dtype": "int32"}, {"name": "StatefulPartitionedCall/sequential_2_1/lstm_10_1/while/body/_106/sequential_2_1/lstm_10_1/while/add/y", "shape": [], "dtype": "int32"}, {"name": "StatefulPartitionedCall/sequential_2_1/lstm_10_1/while/body/_106/sequential_2_1/lstm_10_1/while/TensorArrayV2Read/TensorListGetItem/element_shape", "shape": [2], "dtype": "int32"}, {"name": "StatefulPartitionedCall/sequential_2_1/lstm_10_1/while/body/_106/sequential_2_1/lstm_10_1/while/lstm_cell_1/Cast/ReadVariableOp", "shape": [150, 600], "dtype": "float32"}, {"name": "StatefulPartitionedCall/sequential_2_1/lstm_10_1/while/body/_106/sequential_2_1/lstm_10_1/while/lstm_cell_1/Cast_1/ReadVariableOp", "shape": [150, 600], "dtype": "float32"}, {"name": "StatefulPartitionedCall/sequential_2_1/lstm_10_1/while/body/_106/sequential_2_1/lstm_10_1/while/lstm_cell_1/add_1/ReadVariableOp", "shape": [600], "dtype": "float32"}, {"name": "StatefulPartitionedCall/sequential_2_1/lstm_11_1/while/cond/_149/sequential_2_1/lstm_11_1/while/Less/y", "shape": [], "dtype": "int32"}, {"name": "StatefulPartitionedCall/sequential_2_1/lstm_11_1/while/body/_150/sequential_2_1/lstm_11_1/while/TensorArrayV2Write/TensorListSetItem/index", "shape": [], "dtype": "int32"}, {"name": "StatefulPartitionedCall/sequential_2_1/lstm_11_1/while/body/_150/sequential_2_1/lstm_11_1/while/add_1/y", "shape": [], "dtype": "int32"}, {"name": "StatefulPartitionedCall/sequential_2_1/lstm_11_1/while/body/_150/sequential_2_1/lstm_11_1/while/lstm_cell_1/split/split_dim", "shape": [], "dtype": "int32"}, {"name": "StatefulPartitionedCall/sequential_2_1/lstm_11_1/while/body/_150/sequential_2_1/lstm_11_1/while/add/y", "shape": [], "dtype": "int32"}, {"name": "StatefulPartitionedCall/sequential_2_1/lstm_11_1/while/body/_150/sequential_2_1/lstm_11_1/while/TensorArrayV2Read/TensorListGetItem/element_shape", "shape": [2], "dtype": "int32"}, {"name": "StatefulPartitionedCall/sequential_2_1/lstm_11_1/while/body/_150/sequential_2_1/lstm_11_1/while/lstm_cell_1/Cast/ReadVariableOp", "shape": [150, 600], "dtype": "float32"}, {"name": "StatefulPartitionedCall/sequential_2_1/lstm_11_1/while/body/_150/sequential_2_1/lstm_11_1/while/lstm_cell_1/Cast_1/ReadVariableOp", "shape": [150, 600], "dtype": "float32"}, {"name": "StatefulPartitionedCall/sequential_2_1/lstm_11_1/while/body/_150/sequential_2_1/lstm_11_1/while/lstm_cell_1/add_1/ReadVariableOp", "shape": [600], "dtype": "float32"}]}]}